models/optimized_model.pth (torch, 775436 bytes, 32 tensors)

input_bn.weight f4 [20]
00000000: 30f3 7b3f 15f6 353e 9fa6 223f 8fc4 1b3f
00000010: 36b9 2b3f 1b2f a53e 2368 193f 2d05 353f
00000020: 158d 2a3f cc25 193f b688 343f 4ee0 5a3f
00000030: 06f1 593f 32f7 1940 a04b 0b3f 3729 3b3f
00000040: e7f4 403f 889f d73e 107a 3e3e 4b17 8e3e
0.9841795 0.17769654 0.63535494 0.608468 0.67079484 0.322625 0.59924525 0.7071102
0.66621524 0.598233 0.70521104 0.8549851 0.851334 2.4057126 0.5441227 0.73109764
0.7537369 0.421139 0.1860125 0.27752146

input_bn.bias f4 [20]
00000000: eff5 03be c5da 4a3d 062a ee3c 6e8c 273d
00000010: 8d41 5f3d b622 9abd e92e d43c 98ec fdbb
00000020: 068d b63d fb7a 793d c5f3 abbd 203d 3dbd
00000030: 392b 1bbe a47c b63d 79df 133d ac33 ff3b
00000040: 5cb5 8fbd 91ed 2abd 9d55 d73c ba0d 3d3d
-0.12886785 0.04952504 0.029072773 0.04090541 0.054505873 -0.07526152 0.025901275 -0.0077491514
0.08913617 0.0609083 -0.08396105 -0.04620087 -0.15153207 0.08910492 0.036101792 0.007788142
-0.070170134 -0.041730467 0.02628594 0.04615567

input_bn.running_mean f4 [20]
00000000: b51e 56bd 4d5b 5abd 3c9e 61ba 6bd5 e4bc
00000010: f5fd 763c f1b9 47bd c818 823a 836b e0bc
00000020: c04f 883d 4408 febb 7dc3 fcbb 3780 32bb
00000030: c25a 8c3b f079 e93c a098 0cbd d71a a8bc
00000040: e494 8abc 497d 51bd 29e9 52bd 083d 61bd
-0.05227538 -0.053309727 -0.00086066476 -0.027933797 0.0150751965 -0.048761312 0.0009925598 -0.027395016
0.06655836 -0.00775245 -0.0077137337 -0.0027237067 0.00428328 0.028500527 -0.034325242 -0.02052061
-0.0169167 -0.05114487 -0.05149189 -0.054989845

input_bn.running_var f4 [20]
00000000: a55f 823f 1908 7f3f bc50 883f 84d6 7c3f
00000010: d5bd 863f b746 7f3f 1a99 873f 12f5 893f
00000020: 06fa 903f 165c 843f a654 803f e15d 823f
00000030: 9036 793f d852 7a3f 9148 7f3f 6628 823f
00000040: 498f 8c3f 1afe 7d3f 9c4d 7e3f 4200 803f
1.0185438 0.9962173 1.0649638 0.98764825 1.0526682 0.9971728 1.0593598 1.0777915
1.1326301 1.0340602 1.0025833 1.01849 0.9734888 0.9778266 0.997201 1.0168579
1.0981227 0.99215853 0.9933717 1.0000079

feature_extractor.0.weight f4 [512, 20]
00000000: ad7d afbd bc5b 82be bbb4 9e3e 4b06 69be
00000010: 6e33 d73e 8bd3 b0be e1e6 92bd d6bd 8dbe
00000020: fb9b e53d 41db d5be 88cf 623e 22cd 88bc
00000030: 5234 663e 33b6 703f 0171 e93e ea1a da3e
00000040: 939f 9c3e fccd 963e 6bf8 c83e c5b8 1fbe
00000050: 7221 13bf e810 0c3e 95a7 29bf df3b d43e
00000060: e126 4f3f 5bf5 85be 4d00 b23e 9d26 9fbc
00000070: b388 263e a4a1 ec3e 0a3d 993d 83f4 4abd
00000080: dcd0 0abf 4222 e0be 169f f23d b99f 72bf
00000090: c26d 8dbf cc1d 263f 8063 8abe 6516 cb3d
000000a0: e5fc ebbe d307 4fbd 8e95 803e 810f c0be
000000b0: 7199 b7bd ec76 f13d dba4 e1bd 5e3d d1be
000000c0: 8a21 a4be ba4d e43e 454f 223d 2460 59bf
000000d0: 06f2 c03d 00fb c23e 6bf9 3bbf 5fdd 6ebf
000000e0: aea2 a13f 07f2 5e3f 9f87 343f 9dd6 5b3f
000000f0: f019 0fbf 0bb1 fdbe 5a19 86bb 26b4 33be
00000100: 7c5b 24bd 4c5b febe 0e50 9c3e 39fa 6c3f
00000110: da9d 473f da79 923e 4d28 d73e c603 c8be
00000120: 66cb 8c3a 06a3 58bf 1169 e9be 9ad9 62bb
00000130: c0be 0dbe 65d6 f83e ba6b 013e 1620 a6be
00000140: 94d1 193f e74b 1c3f 8067 963e fa85 233e
00000150: 9cf7 1f3f a646 163e 59d0 a03c f127 8d3e
00000160: b93c 4a3f 8ad7 133d cd5e 00bf 4697 c5be
00000170: 60ff bb3e 8a5c 303f 1f4e 693f e16e 64be
00000180: 4d70 633f 8b04 2a3e c10c 81bc f7ab 033f
00000190: bcec 6c3e fa05 193d f28d 0bbf 99bf 73be
000001a0: 47b0 3e3d adbe 683c e289 693e a3b0 17bf
000001b0: c9fe f9be 8182 1f3f 2e32 423f be6a 3fbf
000001c0: 9eb0 a73e b2b2 32bf 3a00 fcbc 1e6a a43f
000001d0: e855 073f 4abb 16be 6d6b af3e 1dcf cc3e
000001e0: 6c45 38be 7ca3 d13e 35d5 04bf 81b4 dd3e
000001f0: c554 243e c71b 87be 76f5 233e 462c 02bf
00000200: 214f e73e adda 373d 1296 4cbf 813d 343f
00000210: cdd6 913f d266 6b3d cbb0 853e 2a7a 5abf
00000220: 5ba9 353f c9d5 0a3f 7378 0ebd b36f 96bd
00000230: 02f3 9c3d 5551 87be fb0a 8fbb c107 fe3e
00000240: 7ec2 413e eb43 313f 0601 94be d539 84be
00000250: 10ef 9fbe de4f 143f 2bd9 8bbe c77c 53bd
00000260: 6419 10bf 0554 613e cc75 923e a1ed aabe
00000270: e7b7 ee3d cc0b 343f cbcc 7b3e 9b65 033f
00000280: e9f9 a0be 603c 543e 714b a7be 4f74 1d3e
00000290: 4d1a 20bf 0568 373f 2adb 0bbf 24c7 debe
000002a0: 1d20 a83d 17cd fc3e 3246 ca3e 57b6 cb3e
000002b0: 73f8 94bd f462 f33e 4271 1c3f fa53 e93e
000002c0: 7d07 78bf 0309 293f 8fe7 963e 904e 423f
000002d0: 9c07 503e b396 913e a530 87be 9195 08be
000002e0: 6b16 60be 24c6 543e 1285 dcbd 087f 67be
000002f0: d569 8a3c abaa 923e 8135 7d3e db45 773e
00000300: 07d2 6b3e 6929 ac3f bf48 083f 3117 e4be
00000310: f3e5 833d cd97 a9be c8a6 dfbe 6ed1 98be
00000320: e59c 953d 199d 163f 946c 34bf 60d5 b0bb
00000330: 1f6d 8dbc d240 1b3e de81 123e 0621 f43e
00000340: 7469 9e3e 5388 3dbf fd3b 603f e7ac 873e
00000350: 028e 9abd fc49 febd 95ea 19bf 4763 74bd
00000360: 9c57 2cbf 7101 203f 4b42 183f a51a 343f
00000370: a7b7 10bf c284 893e 025f 39bf 34a6 89bd
00000380: e11d f93b 72b2 6d3c 0532 5d3e 24c3 21bf
00000390: f18f bfbe d2ac babe ca8a 7fbe 2699 cbbe
000003a0: b4ea 2f3e c888 48bf f2ad a63b c288 103e
000003b0: dc0b e3be 5b58 d7be c046 3e3e 0243 47be
000003c0: 56d4 043f 6b72 6bbd a7ad 8ebe e865 203e
000003d0: 54f9 9b3e ef15 913e 1861 373e ed0e 963e
000003e0: ff82 be3a 886f fd3e 54fb f7be fe04 203f
000003f0: 18c3 dd3e 5fa2 793f 189f 833e 5c01 e03e
-0.08568893 -0.25460613 0.3099726 -0.22756307 0.42031425 -0.34536394 -0.07172943 -0.27683896
0.112113915 -0.4176884 0.2214948 -0.016699377 0.22480896 0.94028014 0.45594028 0.4259866
0.30590495 0.2945403 0.39252028 -0.15597828 -0.5747291 0.13678324 -0.66271335 0.41451928
0.809187 -0.26163754 0.34765854 -0.019427592 0.16263084 0.46217072 0.074823454 -0.04954959
-0.54224944 -0.43776137 0.118467495 -0.9477497 -1.104912 0.64889216 -0.27029037 0.09916381
-0.4609138 -0.05054457 0.251141 -0.3751183 -0.089648135 0.11790261 -0.11017772 -0.40867132
-0.32056838 0.4459055 0.03962638 -0.84912324 0.09421162 0.38082123 -0.73427457 -0.93306535
1.2627771 0.87088054 0.7051944 0.8587435 -0.5589895 -0.49549136 -0.0040923776 -0.1754919
-0.04012631 -0.4967903 0.30529827 0.9256931 0.7797524 0.2860859 0.42022935 -0.3906538
0.001074177 -0.84623754 -0.45587972 -0.0034614564 -0.13842297 0.4860107 0.1263875 -0.32446355
0.60085416 0.6105332 0.2937584 0.15969077 0.62487197 0.14675388 0.019630598 0.27569535
0.78998905 0.036094226 -0.50144655 -0.38591975 0.36718273 0.68891203 0.9113483 -0.22307922
0.8884323 0.16603296 -0.015753152 0.5143427 0.23137182 0.037359215 -0.54513466 -0.23803557
0.04655483 0.014205617 0.22806504 -0.592539 -0.48827198 0.6230851 0.7585782 -0.7477225
0.32751936 -0.6980392 -0.030761827 1.2844884 0.5286546 -0.14719883 0.34261647 0.40001765
-0.17995232 0.4094504 -0.5188783 0.43301776 0.16047962 -0.2638838 0.16011605 -0.50848806
0.45177558 0.04488628 -0.7991649 0.7040635 1.1393677 0.057471104 0.26111445 -0.8534266
0.7096154 0.5423246 -0.034782838 -0.07345524 0.076635376 -0.2642924 -0.0043653226 0.4961529
0.18921849 0.6924426 -0.2890703 -0.25825372 -0.31237078 0.5793437 -0.27314124 -0.05163267
-0.56288743 0.22004707 0.28605497 -0.3338442 0.1165617 0.703305 0.24589841 0.5132691
-0.31440666 0.20726156 -0.32674745 0.153764 -0.6254013 0.71643096 -0.5463129 -0.43511307
0.0820925 0.4937522 0.3950668 0.39787552 -0.072739504 0.47536433 0.6111032 0.45571882
-0.96886426 0.66029376 0.2947354 0.75901127 0.20315403 0.28435287 -0.264043 -0.13338305
-0.21883552 0.2077871 -0.10767569 -0.22607052 0.016896168 0.28645834 0.24727441 0.24147741
0.23029338 1.3450137 0.53236 -0.44548944 0.06440344 -0.33123627 -0.43681931 -0.29847282
0.07305316 0.5883346 -0.7047818 -0.00539653 -0.017263947 0.15161446 0.14307353 0.47681445
0.3093983 -0.7403614 0.87591535 0.26499102 -0.07546617 -0.12416455 -0.6012357 -0.05966499
-0.6732118 0.625022 0.59476155 0.70353156 -0.5653023 0.268591 -0.72410595 -0.06721154
0.007602439 0.014507877 0.21601112 -0.63188386 -0.37414506 -0.36459976 -0.24955288 -0.3976528
0.17179376 -0.7833371 0.005086654 0.14114669 -0.44344985 -0.42059597 0.18581676 -0.19459155
0.518865 -0.057482164 -0.2786686 0.15663874 0.3046366 0.28337047 0.17908132 0.29308262
0.001453489 0.49499154 -0.48433936 0.6250762 0.43312907 0.97513384 0.25707316 0.43751037

feature_extractor.0.bias f4 [512]
00000000: 9a86 ca3a 4845 00bb a185 97ba bb3c dd3b
00000010: 9979 73bb 3688 8aba 1023 33bb 74b8 60bb
00000020: 56b6 b73b b7c1 a23b 3f6e 0cba cb30 633a
00000030: 661d 363b c738 e6bb d844 493b ff05 e73a
00000040: 0c36 81ba 4a83 33bb 7b8b 2d3b 28d0 703b
00000050: 9ac4 1fba 4bf5 56bb 35ee a0ba fb57 aa3b
00000060: 13df 64ba a0e2 ccba 5e2c 3d3b 582a ef3a
00000070: 1390 cebb 0f42 313b 4fd9 86bb 4b43 343b
00000080: 698c ddbb ec38 dcbb ffdf 723a e5e5 973b
00000090: b58f a1ba 8efa 063b f133 73ba 65d2 383b
000000a0: 03d8 8738 d3e4 c83a 51b7 eb3a c5bf 81bb
000000b0: e4e5 04bb a65c 8bba a1c8 2bbb b71c 1639
000000c0: b3c3 f23b e191 eb3a 354c 50ba 8655 0bba
000000d0: f01e b0ba bbaf 9dbb 90c9 5e3b ff33 e63a
000000e0: e67b ffba c130 8cbb 2f8e cd3a e2a8 42bb
000000f0: a894 0bbb 982e 84bb f56a bd3a b25c 3fba
00000100: e128 ed3a 36e4 8abb f8f0 99bb 894d 393b
00000110: 9958 f1ba 3f28 8bbb 7e41 313b e28a 1c3c
00000120: a833 c63a 9ad7 1d3b 098f 2fbb 8dc1 38bb
00000130: 3117 35bb 74df d13b bc42 f13b 35cf 923a
00000140: 98c4 843b 776e 63bb a4fb 43bb 50fc 693a
00000150: 8f55 adbb 061c 2d3a a8b3 a7b9 2442 6f3a
00000160: 0706 123c aca3 cebb ed1d 00bb 142d b1ba
00000170: ea35 84bb 339a 693a 1f75 d33a d492 a7bb
00000180: 1e74 2f3b 6f1f 0f3b 916f 4dbb d686 5f3b
00000190: 2a6e e43b a571 483a cb8b a9bb 58d4 68ba
000001a0: 42b9 853a da18 56bb 65a9 8b3b d4c2 19bb
000001b0: 57dd 793b 35e6 ceba e275 c83b 5adb 7c3b
000001c0: 7f2d f7ba c3a3 163b 40be ddb7 0eb5 683a
000001d0: f50f 193a dc39 ec3a 37b3 2f3c 5728 e0ba
000001e0: 7557 213c 8cd4 643b d84b 24b9 61b1 573b
000001f0: ff65 813a f4ad 7bba 0fbc f5bb 7a73 8c3a
00000200: 2265 8e3a d02d 5b3b c090 02bc c0ae 1dbb
00000210: d072 4ebb 5c39 cd3a cea5 9dba 809a ebba
00000220: 303e ccb9 9fff 09bc 43b5 c4bb 37d1 ffba
00000230: a81f 383b 8461 483a 6b4e b03a a190 4f3c
00000240: 4f25 733b 5682 e4b8 9634 073b dc50 80bb
00000250: f15d 9839 2eb6 a8ba 60e0 28bb 3fb0 aebb
00000260: a32f 163b 2cba 7439 f7d8 99bb a72b 5e3b
00000270: de1f 99bb cc9d 1cbb a033 81ba 7014 02bc
00000280: 8c1f 7abb 3d1b 85bb cc38 323a 8f3d bb3a
00000290: 09c5 cf3b ac42 f7bb a304 96bb f4d4 29ba
000002a0: 24c0 ad39 0546 4ebb 17bf bfbb 486b b93b
000002b0: f640 2d3c 45ce 36bb 1219 15bc 4238 76ba
000002c0: 9ca8 0e3b 2794 07bc 71a7 8639 0b01 9f3b
000002d0: 1b98 afb9 7be9 b939 3842 b5b8 ff7d 563c
000002e0: eacc abbb 96b1 42bb c61a 7fbb 5e2b 473b
000002f0: c03f 0d3b ea09 0d3a bb6b e6bb 89e9 8ab9
00000300: 9266 1539 da74 21ba 0a61 8fba 04cb 0039
00000310: 4989 ee3a 1ae5 81bb e8ca d13b da00 203b
00000320: 8de4 843b 583a 54ba e2b4 a4bb 78b3 38bb
00000330: dcb4 39bb 31ce 7abb 9d35 e8ba 63f4 36bb
00000340: bf6b 223a 82ee 6abb e225 e33a 790a adba
00000350: cea2 983a 533a 443b 95c9 8a3a 1755 8e3b
00000360: ff33 493b 4869 713b 48eb 233b dd29 283a
00000370: d488 e83a f7a2 79bb 8ebd c83a e4ad 08bc
00000380: 666d cebb 58df 02bc 446b 743a 3991 eeba
00000390: 7f2d bbba 9161 a53a 14cf e33b 9fb4 81bb
000003a0: c7d9 9aba 2d8b b33b 865f d83a 5a71 8eb9
000003b0: a281 a63a 62be 53bb a6dc 533a 8fad 663a
000003c0: be2f c93b 6627 e13b 0f54 983b 1fe3 7a3b
000003d0: 9b0b c9ba a0a2 06ba d1c9 533a f01a bd38
000003e0: 4dd9 b03b 1541 b6b8 6046 0fbc 834a 7c3b
000003f0: a68c c73b aaff babb 6e80 bb3a 9c81 f63a
0.0015451491 -0.0019572545 -0.001156021 0.0067516244 -0.0037151335 -0.0010569158 -0.0027334131 -0.003428963
0.005606453 0.0049669403 -0.0005357004 0.00086666335 0.002778852 -0.0070258114 0.00307112 0.0017625688
-0.0009858026 -0.0027391487 0.0026480842 0.0036745165 -0.00060946646 -0.0032800015 -0.0012278022 0.0051984764
-0.00087307504 -0.0015631504 0.0028865556 0.0018246872 -0.006303796 0.002704743 -0.0041152607 0.002750593
-0.006761123 -0.006720653 0.00092649454 0.00463556 -0.0012326153 0.002059612 -0.0009277454 0.0028201577
6.477537e-05 0.0015326984 0.001798371 -0.0039596283 -0.0020278627 -0.001063247 -0.0026212113 0.00014315812
0.007408583 0.0017972552 -0.0007945926 -0.0005315173 -0.0013436954 -0.0048122085 0.0033994652 0.0017563103
-0.0019491881 -0.004278273 0.0015682633 -0.0029702713 -0.0021298323 -0.0040338747 0.0014451431 -0.00072998845
0.0018093848 -0.0042386306 -0.004697915 0.0028274974 -0.0018413245 -0.004246741 0.0027047093 0.009554597
0.0015121596 0.0024084807 -0.0026788136 -0.0028191537 -0.0027632231 0.0064048115 0.0073626917 0.0011200669
0.004051756 -0.0034703293 -0.0029904628 0.0008925842 -0.0052897404 0.0006603602 -0.00031986577 0.0009126982
0.00891257 -0.0063061323 -0.0019549087 -0.0013517463 -0.0040347474 0.0008911222 0.0016132927 -0.005113939
0.0026772092 0.0021838804 -0.0031347016 0.0034107468 0.0069711404 0.0007646329 -0.0051741353 -0.00088817393
0.0010202306 -0.0032668621 0.0042621368 -0.0023462074 0.0038126314 -0.001578516 0.0061175684 0.0038582892
-0.0018858163 0.0022985793 -2.6433845e-05 0.0008877077 0.00058388646 0.0018022615 0.0107238805 -0.0017101866
0.009847512 0.0034916727 -0.00015668513 0.0032912123 0.0009872316 -0.0009600811 -0.007499225 0.0010715567
0.001086388 0.0033444054 -0.007969081 -0.0024060458 -0.003150154 0.0015657353 -0.0012027563 -0.0017975122
-0.00038956245 -0.008422761 -0.0060030534 -0.0019517307 0.002809504 0.00076439255 0.0013451105 0.01266876
0.0037101095 -0.00010896164 0.002063071 -0.003915889 0.0002906169 -0.0012871677 -0.0025768504 -0.0053310688
0.0022916577 0.00023339008 -0.0046950537 0.003390053 -0.0046729883 -0.0023897765 -0.0009857304 -0.007939443
-0.0038165776 -0.004062085 0.00067986245 0.0014285314 0.006340627 -0.0075457897 -0.0045781895 -0.0006478571
0.00033140287 -0.003147484 -0.005851637 0.005658541 0.01057457 -0.0027893942 -0.0091002155 -0.00093925383
0.002176798 -0.008275068 0.00025683225 0.0048524193 -0.00033491928 0.00035459906 -8.643087e-05 0.013091563
-0.0052429335 -0.00297079 -0.003892587 0.003039084 0.002155289 0.00053802005 -0.0070318854 -0.00026495408
0.00014247958 -0.0006159075 -0.0010938954 0.0001228266 0.0018198873 -0.0039640786 0.006402362 0.002441457
0.0040555657 -0.0008095852 -0.0050264457 -0.0028183144 -0.002833656 -0.0038269872 -0.0017716173 -0.0027916662
0.0006195865 -0.0035847728 0.0017330016 -0.0013201974 0.0011645199 0.002994199 0.001058864 0.0043436396
0.0030701158 0.0036836434 0.0025012065 0.00064149295 0.0017740973 -0.003809152 0.0015315281 -0.00834224
-0.0062996624 -0.00798782 0.0009323845 -0.0018201239 -0.0014280527 0.0012617578 0.006952176 -0.0039582993
-0.001181417 0.0054792375 0.001650796 -0.00027168804 0.0012703429 -0.0032309522 0.00080818904 0.0008799666
0.0061397245 0.0068711517 0.0046486924 0.0038282347 -0.0015338542 -0.00051359273 0.0008079084 9.01724e-05
0.005396998 -8.690559e-05 -0.008744806 0.003849656 0.0060897646 -0.005706747 0.0014305243 0.0018806937

feature_extractor.1.weight f4 [512]
00000000: d5b1 393f 0744 753f 5150 653f c567 a63f
00000010: bdf8 643f 1774 9f3f e8fb 5f3f cca0 663f
00000020: 150f aa3f 98d5 733f 20fd 823f c89d 573f
00000030: eb26 943f 023f 8a3f e1f8 7c3f d43c 883f
00000040: 04f6 6a3f 4d8c 433f f403 3f3f d1c5 ac3f
00000050: ce1d 283f 1576 833f 6302 883f ebb1 6a3f
00000060: e6f6 673f f7cd 733f de53 3c3f 7465 823f
00000070: 3c82 8b3f d7d6 8a3f 8558 843f 80f9 993f
00000080: 8dfe 853f 0f5b 9a3f cc68 583f f2c0 993f
00000090: 8847 473f cc76 893f 6f34 9b3f a10c 833f
000000a0: 8e41 293f e029 4f3f f2bc 8c3f 1c62 383f
000000b0: 8522 853f 0c09 913f 5006 653f 746c a63f
000000c0: 73cb 5f3f de9d a13f 21d4 953f d2e9 913f
000000d0: 7f88 383f 3b0d 453f 7abb 9d3f 76b4 2e3f
000000e0: 7243 573f 79fc 8d3f c125 3f3f 421d 983f
000000f0: a739 a03f f0cd a33f d51a 933f 23bd 743f
00000100: 1e69 823f 1031 9b3f d4e6 b23f 8795 943f
00000110: 26fb 8f3f 98ce d83f d643 2b3f 19ba 913f
00000120: ca7b 573f 6bb8 a63f 79dd 3e3f eaaf 5b3f
00000130: 7279 873f 5ba1 953f 70e6 c03f f43a 843f
00000140: cc00 9f3f d8ea 803f 8327 833f 67b2 293f
00000150: ffbb 943f 37ef 4e3f f6d5 a03f a3ff a43f
00000160: 2cd8 8f3f 2554 7a3f dcf1 3e3f 026e 943f
00000170: d7bc 8d3f 2f30 7a3f 7b37 ad3f 9c7b 763f
00000180: 08d6 883f 3d89 8b3f 70ef 843f da7b 8c3f
00000190: ccd7 943f 1a79 4d3f 8a02 9a3f 3d9e 7d3f
000001a0: da98 383f 2eb9 473f babe a83f 92e5 5f3f
000001b0: 5a8c 9a3f 8ec1 343f 497b 433f 0388 843f
000001c0: 127b 9d3f 3bcd 883f b36b 113f dfd3 463f
000001d0: 55bd 813f 2976 033f 24ae 8f3f 5e8a 833f
000001e0: 6e8c aa3f 4c9c 693f 524d 5d3f d060 893f
000001f0: 2108 453f 65f5 863f 57fc 923f e12b 5f3f
00000200: 05ce 9b3f ec9c 813f 564b 8c3f bd66 8b3f
00000210: 4831 823f 97f2 583f dcd1 803f f977 793f
00000220: 3325 633f 367b 903f 7b29 a23f ff1a c43f
00000230: b50c 6a3f 0223 6f3f d4ec a43f 423c b93f
00000240: 5e25 873f 6a8c 463f 4bfc af3f 82ea 963f
00000250: 7616 843f 156b a23f 9d0e 663f a483 9c3f
00000260: e877 8b3f 76ab 0d3f f26d 893f e47d 4a3f
00000270: 34d6 873f 428e 873f 3d4f 163f e1ce 953f
00000280: 8f13 a83f 91c7 ae3f 2523 463f 8575 6a3f
00000290: 7306 c03f d669 6c3f 09d0 943f 5506 693f
000002a0: 1ba1 9c3f 4f9f a13f dbed 893f e96b 593f
000002b0: e8ad 893f 5102 9a3f 5c61 a63f 4602 9a3f
000002c0: ff9f 553f 1d67 ad3f fa08 4d3f ebb2 4f3f
000002d0: f8d1 7b3f 06b2 833f 1fd7 863f 489a ad3f
000002e0: 2fb0 723f ac9a a13f aba4 9f3f 630d 923f
000002f0: 226c 963f fa38 9c3f 8d4e 8b3f 8e8f 1e3f
00000300: 6e4b 2f3f 095a 6b3f c02f 913f c986 853f
00000310: 5043 a13f 2412 8e3f 0c7e a43f accf 343f
00000320: d949 983f 5fcc 893f 29b1 a53f ab13 993f
00000330: a45e 4f3f 315f a73f f3a8 663f 5eff 333f
00000340: b6ab b03f a3a9 a73f e625 663f c2c5 f93e
00000350: f21a 8c3f a6b9 b23f 5624 8f3f 7be3 a63f
00000360: a73c 9d3f a917 893f 717f 9d3f 8b35 6e3f
00000370: 49bf 533f ad46 133f 84a9 a93f a78c c23f
00000380: ba41 bb3f 6c17 9e3f eee2 813f b808 9d3f
00000390: 8302 b13f 46c0 783f b04c aa3f 698d a43f
000003a0: 3cbd 533f 0b3e 813f a612 353f 5fd2 6b3f
000003b0: a69a 823f e762 883f 3da8 c53f 311d 443f
000003c0: dedf 8c3f 5f25 9a3f ef06 913f 57b8 5a3f
000003d0: de44 b43f 5221 593f 7c52 933f 530d 643f
000003e0: 2039 983f e6d4 283f 5222 903f 4596 703f
000003f0: f28a af3f 684e a43f 7c70 923f 53e3 723f
0.72536975 0.95806926 0.8957568 1.3000418 0.89442044 1.2457303 0.87493753 0.90089107
1.3285853 0.95247793 1.0233498 0.8422513 1.1574377 1.0800478 0.9881726 1.0643563
0.9178164 0.76385957 0.74615407 1.3497869 0.6567048 1.0270411 1.0625728 0.9167773
0.9061111 0.9523615 0.7356547 1.0187211 1.0899119 1.0846814 1.0339514 1.2029266
1.0468308 1.2059039 0.8453491 1.2012007 0.77843523 1.0739379 1.2125376 1.0238229
0.66115654 0.8092327 1.0995162 0.72024703 1.040116 1.1330886 0.8946276 1.3001847
0.87419814 1.2626302 1.1705362 1.1399481 0.72083277 0.76973313 1.2322838 0.6824411
0.8408729 1.1092674 0.7466698 1.1883929 1.2517594 1.2797222 1.1492563 0.956011
1.0188329 1.2124348 1.3976693 1.1608132 1.124852 1.6938047 0.66900384 1.1384917
0.8417326 1.302503 0.7455669 0.858153 1.0583937 1.1689867 1.5070324 1.0330491
1.2422118 1.0071669 1.0246433 0.66287845 1.1619872 0.8083376 1.2565296 1.2890514
1.1237845 0.97784644 0.745878 1.1596072 1.1073254 0.9772977 1.3532556 0.9628236
1.0690317 1.0901257 1.038557 1.0975296 1.1628356 0.8026291 1.2032025 0.9906958
0.7210823 0.78016937 1.3183205 0.8745967 1.2074082 0.7060784 0.76359993 1.0354007
1.2303183 1.0687631 0.5680496 0.7766704 1.0135905 0.51352173 1.1225019 1.0276601
1.3324106 0.91254115 0.86446106 1.073267 0.7696553 1.0543638 1.1483258 0.8717633
1.2172247 1.0126014 1.0960491 1.0890728 1.017129 0.8474516 1.0064044 0.9744869
0.88728637 1.1287601 1.2668909 1.5320739 0.9142564 0.9341279 1.2884774 1.4471514
1.0558279 0.77558005 1.3748869 1.1790316 1.0319355 1.2688929 0.8986605 1.2227674
1.0895967 0.55339754 1.0736678 0.79098344 1.0612245 1.0590289 0.5871466 1.170376
1.3130969 1.3654653 0.77397376 0.9158557 1.5001968 0.9234899 1.1625987 0.91025287
1.2236665 1.2626742 1.0775713 0.8493028 1.0756197 1.2031957 1.2998462 1.2031944
0.8344726 1.3547093 0.8009182 0.8113238 0.9836726 1.0288703 1.05344 1.3562708
0.94800085 1.2625327 1.2472128 1.1410335 1.175175 1.2204888 1.0883347 0.619378
0.6847447 0.9193426 1.1342697 1.0431758 1.2598667 1.1099286 1.2850966 0.7062938
1.1897537 1.0765494 1.294469 1.1959127 0.81003785 1.3075925 0.90101546 0.70311534
1.3802402 1.3098644 0.8990158 0.4878369 1.0945723 1.3962905 1.1182964 1.3038172
1.2284135 1.0710346 1.2304517 0.9305045 0.82713753 0.5752972 1.3254857 1.5199174
1.4629433 1.2350898 1.0147378 1.2268286 1.3828892 0.97168386 1.3304653 1.2855655
0.82710624 1.0097059 0.7073158 0.92117876 1.0203445 1.0655183 1.5441967 0.7660704
1.1005819 1.2042655 1.1330241 0.8543753 1.4083517 0.8481647 1.1509547 0.8908283
1.1892433 0.6594986 1.1260474 0.93979293 1.3714278 1.2836428 1.1440578 0.9487812

feature_extractor.1.bias f4 [512]
00000000: 5a81 2ebf 7fdf 7cbd c892 303e 4ad0 aabe
00000010: 9cd7 fbbe 6364 47bf 08f4 eabe 93c8 acbe
00000020: 0aac 75be 8465 8dbe a2d4 b8be 15b2 c6be
00000030: d633 d6be 7df1 d5be 74be 7ebf fa03 0bbf
00000040: 7cf4 e3be a90f 9abe 2551 e9bd 48d3 8cbe
00000050: 3f2c 1dbf 4051 98be 6b24 1abe b52a adbe
00000060: 8457 03bf 08bf 27bf 258e 65bf e0d5 f1be
00000070: 738a 47bf 6e9f 07bf 2246 64be 992a 52bf
00000080: 9d91 02bd e3f7 3abf d41f 32bf e407 d9be
00000090: 9b16 8cbe 1fa3 ce3e 36a1 d6bd 573a 423e
000000a0: 20d6 c9be 04cc 09be 3854 1bbf c77b e4be
000000b0: c751 a7be a682 73be 1e65 01bf 963f 93be
000000c0: e19d a6be 9289 a7be f85f d3be 0d87 f9be
000000d0: 3d8c 62be 25dd 67bf 34cf 8dbd 9541 e0be
000000e0: adaf b1be 403e 2cbf 041a ecbe 4681 02bd
000000f0: a07a 74bf 96f9 ffbe d9fe 33bf 3267 79bf
00000100: 4209 1dbf f6bb 47bf 50f2 8cbe 2319 dc3d
00000110: b010 37bf 6f7b 11bf 0845 8dbe 178d b7be
00000120: 72e7 87be 10e2 22bf 458e adbe 3198 c3be
00000130: 8861 41bf bc65 e0be 220b 7fbf c359 fabc
00000140: 5768 f2bd 7a42 52be 7b94 fdbe a079 1cbf
00000150: f076 85be 066e 0abf f10b 0cbf b07e 8cbf
00000160: 9092 ffbe ca75 abbe 25f8 9abd bc54 71bf
00000170: 150e 8fbf 829c dfbe 5b6d c6be be3e 76bf
00000180: 7e57 e0be 4706 07bf 2b2d 12be b564 a3bd
00000190: 4904 95bf f213 e3be 8f93 58bf 36aa a6be
000001a0: 152f 96be 0a2e 113e 5b19 64bf bca9 b6bd
000001b0: 40a1 35bd ac21 42bf ba68 edbe 5f2c f8be
000001c0: 9a1d b2be 1cf4 59bf 97aa 06bf 5fb9 02bf
000001d0: 5f00 84be 20e7 fabe 00dc 093e 658c fe3d
000001e0: 5c5b 3fbf 2d01 09bf 659c 26bf 349c 2bbf
000001f0: 80b1 1dbf 5287 fabe 6007 173d dc02 2dbe
00000200: 13c2 b9be d065 a7bd d687 a9be 057f 33bf
00000210: 2465 81be 651d 39be b62a 98be fcdc 56be
00000220: 56fb a6be db79 d2be ef72 a5be 353c f7be
00000230: 0f1b 063e a08a 2dbd 94f2 f1be 38e0 0dbf
00000240: cf6d fabd 2fd7 5cbd 72c4 12bf fa18 51bf
00000250: cd1b 4abe a91d efbe fbc3 42bf d7de 40bf
00000260: 411e aebf 152a 23bf d1ef e6bb cebb 363e
00000270: ece4 ddbe 86f9 e9be 8eee 31bf c09c 2ebf
00000280: daaf 52be fdf1 e3be 5552 2bbf d8f8 c0be
00000290: 25aa edbe 7c1c a0bd ed95 903d d04d 5ebe
000002a0: 7690 d8be 43ef 91be bd5a b2bc 4421 f5bc
000002b0: d309 41bd 2f96 21bd 2967 c9be 7c20 8cbd
000002c0: 50d7 17bf aeac b9bf 18d3 40bd def0 ffbe
000002d0: 0ac9 38be 6585 083e f657 5dbf 27c7 10bd
000002e0: d8c7 8dbe 715f 11bf 4c07 72bf 19f1 bebe
000002f0: 9c1d 51bf d61a 70be b381 7cbe 839f 97be
00000300: b5d5 7ebe e42b 03bf 07bc a2be 3f01 fcbe
00000310: 64d3 1dbf 947d 62bf ad2f a5bd 4487 25bf
00000320: a13a 04be 7f96 62bc 1dd1 62bf 3392 5a3d
00000330: cf11 03bf d599 69bf 2ffd 28be ce20 19bf
00000340: eb8b 87bf 803d 78bf 230d 5dbf 8477 efbe
00000350: afa2 f3be 0491 c3be 4cbe 75bf d653 3dbe
00000360: 36eb 24bf 4f46 8bbe 8c0b 59bf 7375 56be
00000370: 6434 e4be 1462 49be 597e e8be 4712 efbe
00000380: e2de 59bf 7706 f6be 2542 34bf d025 01bf
00000390: 1700 a1be b169 77bf 520f f73b 396b 99bf
000003a0: 77fd 04bf 2c3c 54bf 9ce0 773d b7a9 adbe
000003b0: af0c 5ebe 73fc 34be 7316 2dbe 6699 00ba
000003c0: d7a9 82be af15 aebe 749a 42be 67c8 01be
000003d0: a489 f2be 2092 b6bd 366f 04bf b96b 16bf
000003e0: 034d 61bf c82c 04bf 0364 22be b1b4 31be
000003f0: 9cf3 51bd cdd9 14bf 4e25 18bf f6be abbe
-0.68166125 -0.06173658 0.17243493 -0.33362037 -0.49187934 -0.7788755 -0.45889306 -0.33746776
-0.23991409 -0.27616513 -0.36099726 -0.3880774 -0.41836423 -0.41785803 -0.9950936 -0.5430294
-0.44522464 -0.30090073 -0.1139243 -0.27504945 -0.6139564 -0.2974949 -0.15052955 -0.33821645
-0.51305413 -0.65525866 -0.8967002 -0.47233486 -0.7794563 -0.52977645 -0.22292379 -0.8209625
-0.03187715 -0.73034495 -0.69579816 -0.42388833 -0.27360997 0.40358827 -0.10479967 0.18967567
-0.39421177 -0.13456732 -0.6067538 -0.44625685 -0.3267958 -0.23780307 -0.5054492 -0.2875945
-0.32542327 -0.32722145 -0.41284156 -0.48735848 -0.22123809 -0.90571815 -0.069242865 -0.43800035
-0.34704342 -0.67282486 -0.46113598 -0.031861566 -0.9549961 -0.49995106 -0.7031074 -0.9742309
-0.6134225 -0.7802118 -0.2752862 0.10746982 -0.7150984 -0.5682897 -0.2759173 -0.3584983
-0.26543766 -0.63626194 -0.33897606 -0.3820205 -0.75539446 -0.43827617 -0.9962636 -0.03056038
-0.118363075 -0.20533171 -0.49527344 -0.61123085 -0.26067305 -0.5407413 -0.5470572 -1.0976162
-0.49916506 -0.33488303 -0.07566861 -0.9426992 -1.1176172 -0.43674093 -0.38755307 -0.96189487
-0.4381675 -0.52743953 -0.14275043 -0.07978193 -1.1641933 -0.44351155 -0.84600157 -0.32551736
-0.29332796 0.14177719 -0.8910119 -0.08919093 -0.044343233 -0.7583263 -0.46368963 -0.48471352
-0.3478821 -0.85138106 -0.5260405 -0.51064104 -0.25781533 -0.4900446 0.1346283 0.12429122
-0.7474878 -0.5351742 -0.6508239 -0.6703522 -0.6159897 -0.48931366 0.036872268 -0.16895622
-0.3628088 -0.08173716 -0.33111447 -0.7011569 -0.25272477 -0.1807762 -0.29720086 -0.20982736
-0.3261363 -0.41108593 -0.3231425 -0.48288122 0.1309626 -0.04236853 -0.47255385 -0.55420256
-0.122279756 -0.053916153 -0.57331 -0.81678736 -0.19737168 -0.46702316 -0.7608029 -0.75340027
-1.3602983 -0.6373609 -0.0070476313 0.1784508 -0.43338716 -0.45698184 -0.6950463 -0.6820793
-0.20574895 -0.4452056 -0.66922504 -0.37689853 -0.46418872 -0.07817933 0.07059846 -0.2170937
-0.42297715 -0.28502855 -0.021771783 -0.029923089 -0.04712851 -0.039449867 -0.39336517 -0.068421334
-0.59312916 -1.4505823 -0.047076315 -0.49988455 -0.1804544 0.13332136 -0.8646234 -0.035346176
-0.2769153 -0.5678626 -0.94542384 -0.37293318 -0.81685805 -0.23447737 -0.24658851 -0.29613885
-0.2488621 -0.51238847 -0.31784078 -0.492197 -0.6165068 -0.88472867 -0.08065734 -0.64659524
-0.1291299 -0.013829826 -0.8860033 0.053362083 -0.5119905 -0.91250354 -0.16502832 -0.5981568
-1.0589575 -0.9696884 -0.8634817 -0.4677087 -0.47585055 -0.38196576 -0.95993495 -0.18489012
-0.64421403 -0.2720208 -0.84783244 -0.20943241 -0.4457122 -0.1966632 -0.45408896 -0.46693632
-0.8510572 -0.48051807 -0.7041343 -0.5044832 -0.3144538 -0.9664565 0.007539668 -1.1985847
-0.51949257 -0.82904315 0.06051694 -0.33918545 -0.21684526 -0.17674427 -0.16903095 -0.00049056706
-0.25520203 -0.34000918 -0.19004232 -0.12674104 -0.47370636 -0.0891459 -0.51732194 -0.5875812
-0.88008136 -0.5163083 -0.15858464 -0.17354085 -0.051257715 -0.5814484 -0.5943192 -0.3354413

feature_extractor.1.running_mean f4 [512]
00000000: d7db 6f3d 896c 8f3e dea5 1c3b de5a 103d
00000010: a783 e13d 1865 42be 42f3 91bd aa58 ab3d
00000020: 1e47 ca3d d525 e73c 2622 90bd e3b3 393c
00000030: 6514 a7bb 9c4d 473c 0f5f 24be fdbf 72be
00000040: 549b c4bd 4952 1dbd a54e 273e 00de 123e
00000050: 3c99 973e ea0a fabd 51fd 353e f496 723d
00000060: 2fc5 93bd 5ce3 ad3c eec4 0b3e a299 afbc
00000070: 66fe 4abe 2371 473c 251d d9bc bf00 c5bd
00000080: e575 173e d0b9 fabd 2382 83bd 764a 6b3e
00000090: 75a4 d63d 9198 18be 41a9 be3d 5abb 8b3d
000000a0: 7213 cbbd aeb4 223e f02e 8f3d bd4b d3bd
000000b0: efc3 08be 9895 a0bd 314c 1a3d c526 eebd
000000c0: 8852 253e e0c9 833e 1b49 8c3d 408a a1bd
000000d0: 8ae0 35be 934a 93bc dcf0 d9bd 908e 023c
000000e0: 90a5 05be d172 74be 8800 303d 2b20 b5bd
000000f0: f601 65be 7f1a cfbd d2fa 52be c712 48bd
00000100: 0bd4 1f3d 8e62 a93d dbc6 8cbe 7c7c 25be
00000110: 69a8 1b3e 72ff 96be 7475 6a3c 9915 fd3c
00000120: 0b30 05bc d505 12bd 7d38 853c 8d16 46be
00000130: 4297 aebc 36fe 26be ed9a 9a3e 5d99 06be
00000140: dea7 193d f215 13bd db0e 9ebd 35fe 4d3e
00000150: 4d6d 7139 347e bf3e 55d5 c6bc 18c2 b4bd
00000160: e037 1f3d b048 c2bd 1624 1fbe 3824 f93d
00000170: 0e3d 373e 9bdf 5dbd 5770 4f3e 1cfd 6c3e
00000180: 7fa2 683e b651 06be be9b c6bc 3cfc 453e
00000190: 26df ebbd 321a 9a3e c0c0 abbd 4ade 3fbe
000001a0: d908 be3c 5fec 8ebd 9f80 f9bd d241 c2bd
000001b0: d1bf 2fbd 04a9 6ebd a3e0 0dbe 2321 e13d
000001c0: 90ff 30bd 8a16 b83d f366 52bd f9fb b9bd
000001d0: b5ca aabe e448 5a3e 92b8 21bd de89 bbbd
000001e0: 20cb db3e 699f dcbd 066f 853d 8072 58be
000001f0: b220 2d3d c546 683e d67d 59be c8b8 5fbd
00000200: 598b 2f3d c681 2abd c849 ae3d 2b84 8abd
00000210: ad13 a5bc ef15 2dbe 5d86 103e a41c 59bd
00000220: b3f5 b23d 0699 9f3d 3afe 2dbe e319 e73e
00000230: 00e0 2a3c 4ee1 6dbd 5625 f3bc 173b b43a
00000240: 2a59 f7bd fed6 d03b cdf0 003f 1823 20be
00000250: ddbb c73d 9a05 963d 33c2 7a3d dfe7 e4be
00000260: a36c 14be a994 41bd 26c8 a13d 916e ab3e
00000270: a9f4 073e c6b0 88bd 5442 e8bd 7558 18bd
00000280: be7f 8dbe 29ae a8bc 766e 85bb 827f 9bbd
00000290: 0021 d53c a9e3 debd d44b 203e 6635 c53d
000002a0: 103a 69bd 60e0 293d 98d1 dd3c a26e c0bd
000002b0: 6bbc 863d a9d9 513e 3c5e a13d faf5 0abd
000002c0: 90bd 8dbe 9e48 5bbd 9d86 a8bd ce19 7a3d
000002d0: c056 793d bbeb cd3d 6bac 363e ef69 903e
000002e0: b54a 2ebe 3e98 053a c604 a33e 5066 0b3c
000002f0: e3a2 1d3e e52b 4f3e 4f4c dabc d229 553e
00000300: 0b38 8e3d d8fa 56bd 08c7 ee3c 5fee 92bd
00000310: ba09 61be 3527 7e3e d423 813e 43ac f43c
00000320: 6f71 85bd a5c5 863b a8ce 4f3e 8956 28be
00000330: 7d6a 23be 71af d23e 49f2 a3bd ca98 ac3d
00000340: 9f2f a7bd 6184 953d 8ae6 28be 74d5 3ebe
00000350: 8215 c13d 7991 2fbe bd72 633e 7866 0e3d
00000360: b591 edbc 6ecb 2bbd acc5 143c be26 4cbd
00000370: a413 35bd 85f8 39bc d72c ecbd 4e58 9b3b
00000380: 2fee 34be d275 153e 052a 873d 2d62 23bc
00000390: 6ca2 a4bd 2e78 8bbd 9da1 e7bd 11b3 d1bd
000003a0: 56b8 893e 7cb0 a33e 9a76 f7bd bbf1 92be
000003b0: 80b0 a0ba bbff d8bd 37c7 c03c af24 01be
000003c0: 3148 0ebd 77d2 b2bc 50d2 a1bd dc71 b93c
000003d0: 59b0 2bbe 0724 e6bd 58dd 613e 7c7a a5be
000003e0: a00c 70be 27b1 a5bd ea7a e53d 6dd7 393e
000003f0: d0f3 d3ba 9f22 703e 7c57 26be 11bd 1fbd
0.058559265 0.28012493 0.0023902575 0.035242908 0.11011439 -0.18983877 -0.07126476 0.08366521
0.09876846 0.028216282 -0.07037763 0.011334392 -0.0050988668 0.0121645 -0.16051887 -0.2370605
-0.09599939 -0.03840855 0.16338594 0.14342499 0.29609096 -0.12209113 0.17772414 0.05922599
-0.07215344 0.021226577 0.13649341 -0.021435563 -0.19823608 0.01217297 -0.026503155 -0.09619283
0.14791067 -0.12242472 -0.06421306 0.22977623 0.104805864 -0.1490195 0.09309626 0.06822844
-0.09915818 0.15889236 0.069913745 -0.1031718 -0.13355993 -0.07841033 0.037670318 -0.116284885
0.16144764 0.25739956 0.06849881 -0.07887697 -0.17761436 -0.017979896 -0.106416434 0.00796856
-0.13051438 -0.23871924 0.042969257 -0.08844026 -0.2236403 -0.101124756 -0.20603493 -0.048846032
0.03902058 0.08270751 -0.27495465 -0.16160768 0.15200962 -0.29491764 0.01431023 0.030894088
-0.00812913 -0.035650093 0.016262287 -0.1934454 -0.02131236 -0.16307911 0.30196324 -0.13144441
0.037513606 -0.0359096 -0.07717677 0.20116504 0.00023024269 0.37400973 -0.024271647 -0.08826083
0.038871646 -0.0948652 -0.1554111 0.12165111 0.17894384 -0.054168325 0.20257698 0.23143429
0.22718237 -0.13117108 -0.024244186 0.19334501 -0.115171716 0.3009811 -0.083863735 -0.1873714
0.023197578 -0.06978678 -0.12182736 -0.094852105 -0.04290754 -0.058266655 -0.13855223 0.109926485
-0.043212473 0.08988674 -0.05136771 -0.09081263 -0.33357778 0.21316868 -0.03948266 -0.091571555
0.4292841 -0.107725926 0.06515317 -0.21137428 0.04226751 0.22683246 -0.21239409 -0.05461958
0.0428575 -0.041627668 0.085101664 -0.0676349 -0.020150984 -0.16902898 0.14113756 -0.05300583
0.0873827 0.07792859 -0.16991511 0.45136937 0.010429382 -0.058076195 -0.02968089 0.001375052
-0.120775536 0.0063732853 0.5036743 -0.15638387 0.09752629 0.07325287 0.06122036 -0.44708154
-0.14494567 -0.047260914 0.078995034 0.33482793 0.13276924 -0.06674342 -0.11340776 -0.037193734
-0.27636522 -0.020590859 -0.004072006 -0.075926796 0.026016712 -0.108832665 0.15653926 0.096293256
-0.05694014 0.041473746 0.027077481 -0.093961015 0.065789066 0.20493187 0.07879302 -0.033925988
-0.27683687 -0.05353605 -0.082288004 0.061059766 0.060873747 0.10054728 0.1783921 0.2820582
-0.17020686 0.0005096233 0.3183958 0.00850828 0.15394168 0.20231588 -0.026647715 0.20816734
0.06944283 -0.052485317 0.02914764 -0.07174372 -0.21976367 0.24819644 0.25222647 0.029867297
-0.06515776 0.0041129165 0.20293677 -0.1643926 -0.15958591 0.41149476 -0.080051966 0.0842758
-0.0816338 0.0730064 -0.16494194 -0.18636113 0.094279304 -0.17145337 0.22211738 0.03476569
-0.029000143 -0.041942053 0.009080332 -0.049841635 -0.044208184 -0.011350756 -0.1153199 0.0047407513
-0.17668985 0.14595726 0.065998115 -0.009972137 -0.08038792 -0.06810032 -0.11310122 -0.10239232
0.2689845 0.31970584 -0.12083168 -0.2870005 -0.0012259632 -0.10595652 0.023532493 -0.1261165
-0.034736816 -0.021828873 -0.07901442 0.0226373 -0.1676649 -0.112373404 0.22057092 -0.3232001
-0.23442316 -0.0809043 0.112050846 0.18148585 -0.0016170684 0.23450707 -0.1624431 -0.038998667

feature_extractor.1.running_var f4 [512]
00000000: 90ba be40 05c5 8240 8532 6940 c0e5 b440
00000010: 5f3a 9a40 d7ec 9140 623d 5640 286e d83f
00000020: 2735 6940 647b 3341 468a ef3f 66f7 9f40
00000030: 314f fa40 18d0 ab40 f0dd b940 6ecd 5840
00000040: ac97 2640 dba6 2440 06d7 f340 c31a 3e41
00000050: 5e3d 2f40 5a00 8040 7e9f 5440 8cde d740
00000060: 9be3 9a40 a11d b440 c11f 2940 4192 2a41
00000070: 5675 7c40 c806 0241 94a8 4f40 50a8 1c41
00000080: 7766 6840 a2c4 8241 1b34 7540 2486 d440
00000090: 2838 1141 39ff cc40 d489 af40 1552 c840
000000a0: 3cb9 4d40 3f25 8640 b39d bc40 4531 fa3f
000000b0: a991 2f40 8294 fa40 8d12 4e40 8ebc b540
000000c0: a339 8340 aabf 5e41 c74b 3241 323e 8440
000000d0: 36a8 8e40 d62a 9540 6811 b940 7ed5 bd40
000000e0: ccfa 2640 407c 3440 cee7 5340 2072 5141
000000f0: 3464 3b41 6d55 b840 c9cb b240 2220 dd40
00000100: dc57 1840 9ea1 8340 049d 8640 e208 0b41
00000110: 778b 4240 658f 8640 008d e53f d489 9e40
00000120: 00b1 2040 2f2a 2240 164b 9e40 0612 3141
00000130: 2d87 7b40 f475 3240 1c94 7840 f2c0 cb40
00000140: 466f fe40 2da2 ec3f 0b94 3240 8fc8 5140
00000150: 959c 2541 7fe3 1c40 be78 0941 e79f bc40
00000160: 520b 8640 c675 0c41 d448 c440 6488 7a40
00000170: 5222 0541 5141 0c41 2a24 8740 e19a 3741
00000180: 20f2 8d40 fa64 ac40 f6ee f540 136e a140
00000190: 9a85 5841 b376 7b40 83a7 6140 3260 0a41
000001a0: 0e8b 3f40 0ec7 8440 3863 3f40 84ae a040
000001b0: 27dc 2441 7769 3340 e330 2c40 150e bd40
000001c0: 86e8 c840 0e8d f240 e95f cc3f fe53 833f
000001d0: d9e9 5640 7bc3 dc40 9380 a940 7b6c d740
000001e0: 0c2e 5840 6def 8440 4f3e da40 098f f340
000001f0: 6315 0340 42d0 1940 59ac cb40 1fea b840
00000200: ab95 fa40 db19 3d41 aace e840 e1ef 8440
00000210: 0cb3 8740 083f 1f40 6145 3141 a915 7140
00000220: 693b 0f41 ba13 5d41 9b00 f940 8967 8140
00000230: ddd4 ce40 cd13 8c40 a165 de40 6363 0b41
00000240: 956a 0841 888e b140 8c63 5c40 ca7c a740
00000250: 2a56 aa40 9f4c 9c40 e5e4 e540 6379 3f40
00000260: 2dfb 0541 e64d 1740 50df b740 628b 4e41
00000270: b935 4841 6a8d 4b41 29d3 d33f 4bcd 9940
00000280: 84dc f940 9bb5 5840 8088 0740 ff64 9340
00000290: b8c1 dc40 e7a1 8040 72a4 6141 58d0 df40
000002a0: cff4 dc40 ddeb 0741 7044 0241 12f2 4a40
000002b0: 5925 4241 0844 b540 4010 8940 d30e 1641
000002c0: 6577 9040 e059 1c41 636f ef40 f57b 4640
000002d0: 1820 af40 44ac 1541 df25 cc40 16c3 e640
000002e0: c1ef 8a40 7031 df40 31dd 0041 0422 6041
000002f0: 1f1c 2440 11a8 4040 1673 4240 19dd 7f40
00000300: 5e96 a640 ae64 0040 53de e140 a8bb 4f40
00000310: 37fe a040 a143 0541 7b1d c440 d935 0c40
00000320: 6b23 dd40 1b69 f140 abaf 1641 a970 3a41
00000330: 89f4 9940 5b1c 6940 39eb d640 007a 1940
00000340: 3098 ac40 133f c840 e8fb 1b41 4aee ad3f
00000350: e6c6 fe3f a86e 6540 2d6e c740 1a47 ab40
00000360: aa0b bd40 355c 9740 0dad c540 afef 8e40
00000370: 7b18 8540 4236 6740 0a9f f840 4ddf e540
00000380: 7923 6240 481e e240 6600 2240 5d34 a740
00000390: 746d ce40 67f9 0541 5678 b140 392a 0540
000003a0: 19d1 5040 5d87 3041 b48d d440 1bcd a240
000003b0: 1b1f 0d41 fd89 bd40 0197 5a41 b394 5640
000003c0: 0bab 4640 233e 6f40 a994 2541 acd0 d440
000003d0: 6b0f 2940 0355 8a40 859b 6d40 e0aa f33f
000003e0: ada6 0640 76aa 0c40 ccef a340 85a5 c240
000003f0: c869 2f41 eab9 0641 10c7 b540 8bb3 4740
5.9602737 4.08655 3.6437085 5.6530457 4.8196254 4.560161 3.3474965 1.6908617
3.6438692 11.217625 1.8714073 4.99895 7.822167 5.369152 5.808342 3.3875384
2.6030073 2.572684 7.619998 11.881534 2.7381206 4.000043 3.3222346 6.7459164
4.840284 5.628617 2.642563 10.6607065 3.9446616 8.126656 3.2446642 9.791092
3.631254 16.346012 3.8313053 6.6413746 9.07621 6.406155 5.4855747 6.26002
3.2144308 4.1920466 5.8942504 1.9546286 2.7432654 7.8306284 3.2198822 5.679267
4.1007857 13.921793 11.1435 4.132592 4.4580336 4.661479 5.783375 5.932311
2.6090574 2.8200836 3.3110232 13.090363 11.711964 5.760428 5.587376 6.9101725
2.3803625 4.1134787 4.206667 8.689669 3.0397623 4.205004 1.7933655 4.9543247
2.5108032 2.5338247 4.946666 11.0669 3.9301255 2.7884493 3.8840399 6.367303
7.951083 1.8486992 2.7902858 3.2778661 10.350728 2.4513853 8.591978 5.8945193
4.188882 8.778753 6.13389 3.9145746 8.320879 8.765946 4.2231646 11.475312
4.4358063 5.3873262 7.68542 5.044687 13.532618 3.9291198 3.525849 8.648485
2.9928622 4.1492987 2.9904308 5.021303 10.303748 2.803312 2.6904838 5.907969
6.278384 7.5797186 1.596677 1.0260007 3.358023 6.8988624 5.296945 6.7319922
3.3778105 4.154227 6.820106 7.6112103 2.0481803 2.403336 6.3647885 5.778579
7.83077 11.818812 7.2752275 4.154282 4.2406063 2.4882221 11.079438 3.766947
8.952004 13.817316 7.781324 4.0438886 6.4634843 4.377417 6.949906 8.711764
8.526021 5.548649 3.4435759 5.233983 5.323018 4.884353 7.184191 2.9917839
8.373822 2.3641295 5.74601 12.909029 12.513116 12.722025 1.6548816 4.80631
7.8081684 3.3860843 2.1177063 4.6060786 6.8986473 4.0197635 14.102648 6.9941826
6.904884 8.495084 8.141708 3.1710248 12.134118 5.6645546 4.2832336 9.378619
4.5145745 9.771942 7.482347 3.1013157 5.4726677 9.354557 6.379623 7.211314
4.341767 6.974785 8.054002 14.008305 2.5642164 3.010258 3.0382743 3.9978697
5.2058554 2.006145 7.058389 3.2458286 5.031032 8.329011 6.1285987 2.1907866
6.9105735 7.5440803 9.417888 11.652505 4.8111005 3.6423557 6.7162137 2.3980713
5.3935776 6.2576995 9.749001 1.3588345 1.9904449 3.584879 6.232199 5.3524294
5.907674 4.7300057 6.1773744 4.4667583 4.1592383 3.6126866 7.769414 7.1835084
3.533415 7.0661964 2.5312743 5.225142 6.450861 8.373389 5.5459394 2.080702
3.2627623 11.033048 6.6422977 5.0875373 8.820094 5.9230943 13.661866 3.3528259
3.1041896 3.7381675 10.348794 6.6504726 2.641566 4.3228774 3.7126172 1.9036522
2.103923 2.197904 5.123022 6.082705 10.9633255 8.420389 5.6805496 3.1203334

feature_extractor.4.weight f4 [256, 512]
00000000: ba14 863d 2f22 4dbe 0ff0 583d 81d2 20bd
00000010: 1175 033e 9084 c53d 5b7e ccbd 663f ca3d
00000020: 586d edbd 47ff b2bd 694b a6bd f722 b7bd
00000030: 327f 253e ef06 043d 82a7 d7bd c685 773d
00000040: 45f2 51be e1d1 343e 3363 193d 76fb e03d
00000050: 9313 0d3e 2a86 aabd e34d 03be e249 1f3d
00000060: 8caa 073c 6240 84bd bf78 59bc 6ee7 663d
00000070: 1a08 123e 651b c2bd 7982 ae3d 7718 7cbd
00000080: 10ee 99be 9cc5 87bd 2596 143e ceeb ccbc
00000090: 72b0 cfbd 4800 9a3e 7afa 10bd 2ac4 80bd
000000a0: 848f 04be 0c25 0cbe eaab bdbc c1a7 623d
000000b0: 49f9 b3bd 586b 4fbe 2d2b 093d 888a 38be
000000c0: 8921 5bbd 6f69 dcbc 337e 72bd 1ee0 193e
000000d0: b327 4abc 15b6 0b3d 89ca acbd 2b55 1a3d
000000e0: 990a 343e 95e0 f53b b15b 453d 3816 c83c
000000f0: dd4f 39be 9219 91be 21bb 24be a14d f73d
00000100: e29c 2cbe d47c bfbc cc51 1e3e 5063 9b3d
00000110: 5153 b23c 5430 ac3e c9e4 c83c 4ffe 993c
00000120: ae41 cc3d 3b06 4bbe dc71 853d ca37 aabd
00000130: 92eb 3f3d 4374 933d d8c9 57be 8750 02be
00000140: 48b0 6c3d 7f62 bcbd d36b 913d 93d0 c53d
00000150: e9e2 4f3e ceea 7fbe 3c13 7e3d 0029 333e
00000160: 449e df3d 09c3 093e 3b2c 5d3d 3fae c43d
00000170: c51d 273d 6d90 9ebd c688 8cbd a497 503e
00000180: aaec 24be f4ce 5ebe 6333 9c3d cca5 bfbe
00000190: 070f 343d fb99 24bd 47e3 19be a9ae 00bd
000001a0: b7e7 b5bd fd17 06be 50f2 b8bd 7cb0 4e3e
000001b0: 5d81 7bbd bc02 0fbd c076 12be e161 4a3e
000001c0: ace3 da3d 83e2 ea3d c9f5 22be 0b7c f73d
000001d0: 55a3 f13d db48 073e 445f 803e 2cc9 59be
000001e0: c038 19be f41c 2fbe 5eb4 d63c 3872 acbc
000001f0: 7e15 2ebd f769 b2be a56a 8cbe 635b 0fbe
00000200: fd97 6cbd 312e 233e 8d76 523d 72bd bb3c
00000210: aca1 503c e63a 64bd 648f 8d3e 0ab8 073e
00000220: 1c4e 543e 1bf2 fcbd 3649 86bd 11ee a6be
00000230: 0401 c03d 04fe 19be 6c00 a9bb 0159 be3b
00000240: 5825 0d3d bd2f 56bd 95b3 abbe 5c81 aebd
00000250: c09f 78be 0e77 8ebc e6ac 0f3d dd00 61bc
00000260: 19bb 71bd 1dee 76bd 8cfc f7bd f4b2 2e3e
00000270: 0fa7 b93d e9c5 123b cdae 993d fd1e 263c
00000280: 899f f2bc 62cb 633d f9e0 a63d fd15 943b
00000290: 5853 193e 7711 d1bd 3ff4 85bd 568a 14bd
000002a0: 40c4 713e 9952 2d3e c38b a33d 10cd aabd
000002b0: 59b3 cbbd c6c0 863c 324a 2f3e ca3c 563d
000002c0: 293e da3d 55cb be3d c99b 223d 67e3 cbbd
000002d0: 48a3 1b3e e2fc 14be c43d 4f3d 9af5 06be
000002e0: 49ec cb3b 826c 3bbe d0e5 d7bb 8735 89bb
000002f0: aef2 463d a7f4 a3bd 48a7 583e 4c52 3b3d
00000300: e6ce 1a3d 93eb 323d 0a47 b2bd 4825 823d
00000310: af5b b13d ef61 b83d 374d b7be a217 20be
00000320: 504d a23d 8406 36be a6a4 c53d 6480 4ebe
00000330: 7e16 183e b91f 58be c305 e83d 196c 6bbd
00000340: 60ad 45be 8347 a33e 311d 2abd 6ed1 4b3d
00000350: 5f67 8fbd 1345 25be 7f49 553d 70ba 17be
00000360: 8997 d23d 4163 1bbd dd3a 5c3e 3f31 24be
00000370: fdcc a23d e8c3 363d c0af 12bd bad2 403d
00000380: 90a0 30be c6ee c53d 7101 503e a8be eb3d
00000390: b72b 453e 3bd9 a83c 96cf 7c3e 7e12 143e
000003a0: c709 6fbd e0b1 1c3e 6937 943d 9432 3c3e
000003b0: 6e26 4e3e 7a9d f5bd 6575 e33e 37c7 963d
000003c0: a9e7 e4bc 7e1b 153d 7f02 11bd 71ad 8ebd
000003d0: a6cb d1be 3898 7dbc beab dabd e6a0 39bc
000003e0: e86a 20be 53af df3d cd53 4a3c 9fd2 d13d
000003f0: a205 393d c340 2d3e 6924 00be 0d17 f4bd
0.06546922 -0.20032571 0.052963313 -0.039263252 0.12837626 0.09644425 -0.09985038 0.098753735
-0.11593121 -0.087400965 -0.08119852 -0.08942216 0.16161802 0.032233175 -0.105299965 0.06043031
-0.20502575 0.17658187 0.03744812 0.10985462 0.13776998 -0.08326371 -0.1282268 0.03888882
0.008280408 -0.064575925 -0.013273417 0.056373052 0.14260903 -0.09477881 0.085209794 -0.06154677
-0.3006444 -0.06629488 0.145104 -0.025014784 -0.10141076 0.3007834 -0.035395123 -0.06287415
-0.12945372 -0.13686007 -0.023153264 0.055335764 -0.08787782 -0.20255792 0.03348844 -0.18021595
-0.05349878 -0.026905743 -0.059202384 0.150269 -0.012338567 0.034109194 -0.08437068 0.03767888
0.17582168 0.007503579 0.048183147 0.024424657 -0.18096872 -0.2833982 -0.16087009 0.120753534
-0.16856721 -0.023374952 0.1546089 0.07587302 0.021768244 0.3363062 0.024523156 0.018798022
0.09973465 -0.19826595 0.065158576 -0.08311422 0.046855517 0.071999095 -0.21073091 -0.12726031
0.057785302 -0.09198474 0.07100644 0.09658923 0.20301403 -0.24991915 0.062030062 0.17496109
0.10918859 0.13453306 0.05399726 0.09603547 0.040799875 -0.07742391 -0.06862025 0.20370346
-0.16105905 -0.21758634 0.07626989 -0.3743118 0.043959644 -0.04018591 -0.15028106 -0.03141657
-0.08882087 -0.13095088 -0.090305924 0.20184511 -0.061402667 -0.034914717 -0.14303112 0.197639
0.10687956 0.11468985 -0.15914072 0.12084206 0.11798731 0.13211386 0.25072682 -0.21268147
-0.14963055 -0.17100888 0.026209053 -0.021050557 -0.042500965 -0.3484647 -0.27425113 -0.13999705
-0.057762135 0.1593559 0.05138259 0.022917483 0.012733858 -0.055720232 0.2764846 0.13253799
0.20732921 -0.123508655 -0.06556933 -0.32603505 0.09375194 -0.15038306 -0.005157521 0.00580895
0.034459442 -0.05229162 -0.33535448 -0.08520767 -0.2427969 -0.017390754 0.035077 -0.013733116
-0.05901632 -0.060285676 -0.12108716 0.17060453 0.09065067 0.0022395796 0.07504044 0.010139224
-0.029617088 0.055613883 0.08148379 0.004519223 0.149732 -0.10208409 -0.06540727 -0.03626474
0.2361002 0.1692604 0.07985642 -0.08339894 -0.09946317 0.016449343 0.17118147 0.052304067
0.10656387 0.09316126 0.03969935 -0.09955483 0.15199006 -0.14549592 0.050596014 -0.13179627
0.0062232357 -0.18303111 -0.006588675 -0.004187289 0.04857128 -0.08005648 0.21157563 0.04573278
0.03779497 0.043681692 -0.08704956 0.06354767 0.086600654 0.09003054 -0.35801098 -0.15634015
0.079249024 -0.17775923 0.09650545 -0.20166165 0.1485233 -0.21105851 0.11329224 -0.057476137
-0.19304419 0.31890497 -0.041531745 0.049760275 -0.07002138 -0.16139631 0.052072044 -0.14817214
0.10282809 -0.037936453 0.2150683 -0.16034411 0.07949255 0.044620425 -0.03581214 0.047075965
-0.1724875 0.09664683 0.2031305 0.11510974 0.19254957 0.020611396 0.24688563 0.14460179
-0.058358934 0.15302229 0.07237131 0.18378669 0.20131847 -0.11992927 0.44425502 0.07362216
-0.027942495 0.03640317 -0.03540277 -0.06966675 -0.40975684 -0.015478186 -0.106772885 -0.011329865
-0.15665781 0.10922112 0.012349081 0.10245251 0.045171387 0.16919236 -0.1251389 -0.11918459
