models/simple_dnn_model.pth (torch, 203747 bytes, 20 tensors)

network.0.weight f4 [256, 20]
00000000: 5d77 103d bbb6 a0bd 4626 433d da52 3b3d
00000010: 1dbc b13d ac4f 1c3e 2427 ec3d ebd4 0a3d
00000020: 259a 05be c0a7 c23d 1163 ccbd d22d e73c
00000030: 7049 0b3e 9069 453e 044e 15be c8e4 183e
00000040: 3793 06bc bbb0 febd 1550 59bd 8b64 793d
00000050: 5578 19be 2760 cf3d a6ca 553d 4df4 bcbd
00000060: 952d 483c e7d8 c0bd a63f 913d 822e 92bd
00000070: f775 96bc 1bde 5abd b659 0dbd 3fd1 803d
00000080: 7c28 9bbd 2a2a 9abe 4ec4 153d fa24 e33c
00000090: db77 323c 57be 2c3d 32ef 8f3c 7f43 92ba
000000a0: 3b8f 2f3d 9dfa 76bc aff0 03be 9e71 c1bd
000000b0: aad1 923c 263f 813d 37fc 91bd 706d 173d
000000c0: 40d5 92bd f2a8 e23d 618a 98bd 7132 e8bd
000000d0: 0e0c e3bd 3ece 1ebe c35f 613d 0775 8f3b
000000e0: c0d0 ac3d b80e c33d d000 093e c321 043d
000000f0: b3f1 b93d 090b 933d 35ce 0fbe a9d9 bc3d
00000100: 23d0 ba3d b5ee 01bd a8f8 763c 6ecf 443d
00000110: 6598 e1bd 1270 d63d c0b4 16be 43be 773d
00000120: c53a 1fbd b90a bf3d b0d0 96bd 104a 243e
00000130: c658 53bd a8c0 d6bd ca20 41bd aa5c 0dbe
00000140: 532e 913c ed85 9cbd e8a2 32bd 43c2 87bd
00000150: a97d cebc c8f6 4d3d e354 643c 3d6d dabb
00000160: b327 383b 694f dc3d e224 5abc 3849 013c
00000170: db8d 563d fcd1 933e b6e6 ec3d e80c 343d
00000180: 4e82 3ebd 1fdd b83d cdf7 8abd 279b eb3d
00000190: 4843 96bd d55f e13d a031 49bd 83db 9fbd
000001a0: c20c 65bd cb92 03be f558 3dbd d50c b2bd
000001b0: 4e6d 70bd 87ee 913d 4366 e5bd 9c66 dbbd
000001c0: 930c 70bd a092 81be 5c37 8a3d 0129 07bd
000001d0: af4a 9dbd f5c3 903d 82e0 a73d bdd4 343d
000001e0: a2f1 e43d 6634 c3bd c774 053e e8bf 213d
000001f0: 3422 d1bd f9f0 b43d 3231 c33c fd77 01bd
00000200: e970 c0bd c4ea 0c3e 0d8e e43c 1530 61bd
00000210: 4628 c43b dcfb 2f3d 8fd4 4f3d 2430 023e
00000220: b762 e53c 0e11 0abe 6f5a d63c ae39 ee3d
00000230: 8635 033e 99ea febc e0a4 6dbd 73db 70bd
00000240: 7bf5 06bd 08c3 48bd 36d1 253d 9f17 b8bd
00000250: 25cb f9bc 471b 8b3d 9be0 cd3b 027b 1fbd
00000260: d828 d53d 483f 923e eba0 bc3d f826 13be
00000270: ea28 65bd 1796 b7bd 3566 923c 5665 d13d
00000280: 4886 1abe 1aae 403d 30ad be3c a4f2 2e3c
00000290: 1212 8e3c ae86 733d 533a 5ebc 5bf3 05bc
000002a0: 26ad ff3c 47d5 71bd dbf1 85bd f840 3c3d
000002b0: 3b17 06be 6ff4 9fbe 4ae5 533d d2d5 4bbd
000002c0: aa4a c0bc 2b5a 11bd 0b31 b6bb 7ea7 acbd
000002d0: 0a19 303e 9ab0 2a3d a822 dbbd e01b 89bd
000002e0: ab2d 5b3b 47fb 9bbd eaff a23d e838 34bc
000002f0: 5620 a73d 7d5b 19be b215 41bd 9f63 103e
00000300: 4510 5a3d cde2 d83d cda3 293d eb1c 023e
00000310: be05 2c39 56cc 063e 15f8 ca3d 4232 983d
00000320: 70f9 223d c1cf 4abd eb32 86bc 0e40 483d
00000330: 6ffc 9ebd 8ca4 f33d d91a 1e3d 84e7 fe3c
00000340: 9b73 713d 5d54 e3bb 0413 953d 4ff2 153e
00000350: aad0 983c 50f2 543e b07e f93c 308f a0bc
00000360: 6595 64bd 0046 e6bd 5c74 053d d5b7 09bd
00000370: 5a9c 0b3d 9606 843c a2f7 603d ff06 af3d
00000380: f877 17bd 5829 3abd e22b 093e c647 de3d
00000390: 2876 42bd 3aa5 afbc 20e7 83bd 3a36 97bc
000003a0: 2246 7b3a 5bed 0c3e 82e5 bcbd 0521 143e
000003b0: 5d20 c93c b4ae 3ebd 405d 9c3b d488 c83d
000003c0: 0d92 01be 32a8 463c 22ab 0cbe f8f1 323d
000003d0: fa52 05bc 5e18 40bd 540d 3f3d 68d1 2ebd
000003e0: 827e 763c af2f 073d 26ca e9bc 1705 9ebd
000003f0: c2d6 51bd 31af 3bbe 446b 693d 0371 1bbe
0.035270084 -0.07847353 0.047643922 0.04573331 0.08678458 0.15264767 0.11530903 0.03389446
-0.13047083 0.09504652 -0.09979833 0.028220091 0.13602233 0.1927855 -0.14580542 0.14931023
-0.00821381 -0.124360524 -0.053054888 0.0608869 -0.1498731 0.101257615 0.052195214 -0.09226284
0.012217899 -0.09416371 0.07092218 -0.07137777 -0.018366797 -0.053434473 -0.034509383 0.062899105
-0.07576081 -0.30110294 0.036564164 0.027727593 0.010892834 0.04217371 0.017570112 -0.0011159031
0.042861205 -0.015074399 -0.12884782 -0.09445499 0.017922241 0.06310873 -0.07128184 0.036969602
-0.071695805 0.1106738 -0.07448269 -0.11337746 -0.110862836 -0.15508363 0.055022966 0.0043779644
0.084382534 0.09524292 0.13379216 0.03225876 0.090793036 0.07179839 -0.14043505 0.09221203
0.0912173 -0.03172179 0.015073933 0.048049383 -0.11015395 0.104705945 -0.14717388 0.060484182
-0.038874406 0.09328217 -0.07364023 0.16043878 -0.051598333 -0.10485965 -0.04715041 -0.1380488
0.017722284 -0.07642732 -0.04361239 -0.06628849 -0.025206404 0.050284177 0.013936254 -0.0066658542
0.0028099834 0.10757334 -0.013314458 0.007890992 0.052381378 0.28871143 0.11567442 0.04395762
-0.046510987 0.090265505 -0.067855455 0.11504202 -0.07337052 0.11004607 -0.04911959 -0.078055404
-0.05592037 -0.12848966 -0.046227414 -0.08693854 -0.05869799 0.071255736 -0.112011455 -0.107129306
-0.05860574 -0.25307178 0.0674884 -0.03299809 -0.076802604 0.07068626 0.08197118 0.044148196
0.111789 -0.095314786 0.13032828 0.039489657 -0.10211602 0.088350244 0.02382717 -0.03160857
-0.09396536 0.13761431 0.027899766 -0.054977495 0.0059862463 0.0429648 0.05073982 0.12713677
0.028001172 -0.13483068 0.026166169 0.11632095 0.12813386 -0.031117724 -0.058018565 -0.058803033
-0.032948952 -0.04901412 0.040482722 -0.0898888 -0.030492375 0.06792312 0.0062828786 -0.03893567
0.10408181 0.28563905 0.0921038 -0.14370334 -0.05594722 -0.08964174 0.017871002 0.102244064
-0.15090287 0.047041036 0.023275942 0.010677967 0.017342601 0.059454612 -0.01356371 -0.008175696
0.031210493 -0.059041288 -0.06540271 0.045960397 -0.13094799 -0.31241176 0.05173234 -0.04976446
-0.023473103 -0.03548638 -0.0055600456 -0.08430384 0.17197052 0.041672327 -0.106999695 -0.0669477
0.0033443968 -0.07616287 0.07958968 -0.010999896 0.081604645 -0.14976306 -0.04713983 0.14100502
0.053238172 0.10590134 0.04141598 0.12706344 0.00016405337 0.13163885 0.09910599 0.07431461
0.039788663 -0.049514536 -0.016381701 0.048889212 -0.07762992 0.11896619 0.038599823 0.031116255
0.05894814 -0.006937547 0.072790176 0.14643215 0.018654186 0.2079556 0.030455917 -0.019599527
-0.055806536 -0.1124382 0.032581672 -0.03362258 0.034084655 0.016116422 0.05492366 0.08546256
-0.036979645 -0.045449585 0.13395646 0.108535334 -0.047475964 -0.02144109 -0.06440568 -0.018458474
0.0009585341 0.13762419 -0.09223463 0.14465721 0.024551565 -0.04655333 0.0047718585 0.09791723
-0.1265337 0.012125062 -0.13737157 0.04368779 -0.008137459 -0.04689824 0.04664357 -0.042680174
0.01504481 0.03300446 -0.028538775 -0.077158146 -0.0512302 -0.18328549 0.056987062 -0.1517983

network.0.bias f4 [256]
00000000: 9712 0f3a 1c94 bdbb fb2c f33b f9d0 02bb
00000010: 6895 0b3c b5ad 0f3b 7278 47bb e104 b63b
00000020: c886 07bc cbc7 acba d900 98ba 5a98 2f3b
00000030: 447c 163b c8a0 0dba 2937 043b 4d9b d3bb
00000040: b8f0 a23a 29f6 2b39 996c 21ba 688c 433a
00000050: f001 20bb 5f6a 823b 20b2 99bb 2f4d 133a
00000060: 0887 b53b 0ef0 a63a 0393 423b 26e0 0e3b
00000070: f157 faba c17c fdba 20c2 4d3b 22c4 51bb
00000080: 84d1 c9b9 9b2e e73a 2b73 c53b dde2 65ba
00000090: 61ff e0b7 9932 1e3b e3c5 d63b 2e80 54bb
000000a0: 280f dc3a 23ba 12bb 1e75 923a 760c 8d3a
000000b0: cf28 fc38 f91d 243a d86d 3b3b 4194 6b3b
000000c0: 1aa3 523b cf9b 5f3b 4afb aa3a 62ec 59bb
000000d0: 62c6 10bb 51d5 8fba 9a01 a9bb 2a4c 2e3c
000000e0: 2140 e7ba 6e24 0fba ef80 eeba 12ae 02bb
000000f0: 299c 2e3b f3d8 da3a a728 1abb 853f 4738
00000100: ee50 903b 0f27 d239 04ef 89bb 1193 a63a
00000110: 048e 063b dbb4 aab9 4fab 4ebc 457e dfb9
00000120: a3e6 c039 7d6f 443b d009 70bb 715c 053a
00000130: 1756 11bb acd6 d3bb 37c3 083a 1ba0 80bb
00000140: 973e 933a f319 ea3a c0a1 c8ba 9319 11ba
00000150: 1d2c 3eba fce1 b43a 19ef ae3a e8a4 50bb
00000160: 843b caba 2249 4d3a 5a48 4439 d79e 30b7
00000170: c06b 4d3b fb10 02ba c0d7 07bc d122 5038
00000180: bedd 1abb be60 043a 7537 2fba 9d37 eeba
00000190: bb8e 793b 779e 073b 1612 0cbb 5f70 39bb
000001a0: 38b5 fd39 4c53 b339 32b8 363b fc2d e039
000001b0: bdb7 85ba 0e35 0b3b 8837 90ba 79a8 c63a
000001c0: 1d66 caba 369e fb39 e5f3 a93b 53ed 8fba
000001d0: d02c c83a 30d1 853b 677d 0bba f0fe 7c3b
000001e0: 3e16 bf3b 38b1 36ba 5dac f1b9 0035 c73b
000001f0: f581 0fbb 7b83 bb3b fd25 97bb b85f 213a
00000200: 9b4a b7bb edff 08ba 57fe 883b 23cf 803b
00000210: bf7f 85ba bd6b 48bb 1795 2a3b 648a eb3a
00000220: ff1d f1ba 7ac5 9dbb 3af3 b0ba 4afb a6bb
00000230: 31af 36bb 5296 11ba eeea c1ba c7b1 cfba
00000240: 2081 5e3a 5e4b df3a 29ec 81bb 2fae e93a
00000250: 5033 0fba ab4e 763b 4c73 feba 6de2 35bb
00000260: f02b faba 8cc3 5fbb ea0b 063b 9ad0 e6b9
00000270: 2434 443b ff4e 903b 841c baba a3cb 543b
00000280: a878 42bb ab59 023a 8ba3 6c3b 2c03 beba
00000290: 7435 d638 0b09 273b 5b4d 5d3b d8c1 6cbb
000002a0: 67d7 cdba 30c8 e43a 3222 f13a 8592 6939
000002b0: 370f 24ba c567 aeba 8895 edb7 4aeb 8439
000002c0: d790 d7ba 8b1f 91bb b147 04bb 96bc 18ba
000002d0: d846 ceb9 5e12 09bb bb0e 11ba deb7 9a39
000002e0: 788e 8dba 9edd 733a 67bb af3a eb31 08bb
000002f0: bd4a c23a 67ab 1b3b 20bd 8abb 2813 ff39
00000300: a962 f638 c989 423a 2593 463b 07fc a8bb
00000310: 63f1 42ba 3102 eb3a 24f0 34bb c2aa e63a
00000320: a7d6 763a 359c 2f3b 906b fbb9 a11d b138
00000330: 0761 78b9 23db d23b 6fec 82b9 8ccf 053b
00000340: 758c 13b9 6641 ed3a c3b2 7138 6f11 9d3b
00000350: ef30 1e3b 1f54 d939 e5cf 313b daa5 283b
00000360: 1e4b ae39 1226 463a 8f8e 6bbb 85c9 883a
00000370: 6ef2 23bb 3cb4 ceba 81a9 05b9 1e78 30bb
00000380: ad7c da3a cc2b 10bb 8812 61ba 1551 e33b
00000390: 31cf aabb 4e18 efba 8495 c2ba 083d 9fb9
000003a0: 8843 0a3a eada af38 8741 493b 873b b0b7
000003b0: 95b7 a93a 0dfa 2dba 7448 80b9 f4e4 4abb
000003c0: b07c be3b 5fc7 12ba ad76 b7b9 552f 82ba
000003d0: 5fe2 75bb 0197 f43a 9e24 abba 99e9 e93a
000003e0: 3293 893a 4934 583b 8aae 763b 14b3 b23a
000003f0: 1984 3ebb 02f4 ff37 b6ae ed3a 4763 ee3a
0.0005457787 -0.0057854783 0.0074211336 -0.0019960983 0.008519508 0.0021923606 -0.0030436781 0.005554781
-0.00827188 -0.0013182102 -0.0011596932 0.002679369 0.0022962252 -0.00054026814 0.002017448 -0.0064577223
0.0012431359 0.00016399533 -0.0006157845 0.0007459582 -0.0024415217 0.0039799656 -0.0046904236 0.0005619106
0.0055397786 0.0012736337 0.0029689677 0.0021801083 -0.0019099695 -0.0019339548 0.0031396225 -0.0032007773
-0.0003849381 0.0017637791 0.006025692 -0.0008769462 -2.6821801e-05 0.0024139045 0.0065543517 -0.0032425034
0.0016789185 -0.0022388778 0.001117382 0.001076116 0.000120238976 0.000626057 0.0028599408 0.003594652
0.0032140673 0.0034119969 0.0013044861 -0.0033252467 -0.0022090902 -0.0010973607 -0.0051576616 0.010638276
-0.0017643013 -0.00054604455 -0.0018196384 -0.001994018 0.0026643372 0.0016696736 -0.0023522766 4.7504454e-05
0.004404179 0.00040083422 -0.004209401 0.0012708624 0.0020531425 -0.00032559675 -0.012614085 -0.00042627953
0.00036792931 0.0029973679 -0.0036626942 0.0005087322 -0.0022176558 -0.0064648 0.00052170776 -0.003925336
0.0011233863 0.0017860517 -0.0015306994 -0.0005535122 -0.0007254498 0.0013800259 0.0013346403 -0.0031836573
-0.0015429114 0.0007831027 0.0001871897 -1.05274e-05 0.0031344742 -0.0004961637 -0.008291185 4.962349e-05
-0.0023630704 0.0005049816 -0.0006683984 -0.0018174533 0.0038079459 0.0020693818 -0.0021373085 -0.0028295738
0.0004839094 0.00034203602 0.0027880785 0.0004275887 -0.0010201853 0.002124134 -0.0011002878 0.001515641
-0.0015441809 0.00047992327 0.005186545 -0.0010980762 0.0015272144 0.004083775 -0.00053211156 0.0038604103
0.005831509 -0.00069691567 -0.00046095523 0.006079316 -0.0021897529 0.005722461 -0.004612683 0.0006155926
-0.0055936105 -0.0005226124 0.0041807103 0.0039309426 -0.0010185166 -0.0030581795 0.0026028806 0.0017970321
-0.001839578 -0.004814801 -0.0013500222 -0.005095874 -0.0027875418 -0.00055537105 -0.0014794746 -0.0015845828
0.0008487869 0.0017036011 -0.00396492 0.00178284 -0.0005462663 0.003758351 -0.0019413023 -0.0027753368
-0.0019086581 -0.0034143655 0.0020453879 -0.0004402444 0.0029938305 0.0044039483 -0.0014199172 0.003247001
-0.0029673968 0.0004972468 0.0036108221 -0.0014496795 0.000102142716 0.0025487568 0.0033768031 -0.0036126282
-0.0015704454 0.001745468 0.0018397032 0.00022275194 -0.00062583707 -0.0013306072 -2.8322233e-05 0.00025352306
-0.0016446364 -0.004428809 -0.0020184333 -0.00058264413 -0.00039344165 -0.0020915489 -0.0005533506 0.0002951016
-0.0010799905 0.0009302738 0.0013407291 -0.0020781707 0.0014823299 0.0023753287 -0.0042339712 0.00048651663
0.00011748571 0.0007421044 0.0030300107 -0.005156997 -0.0007436482 0.001792973 -0.0027608955 0.0017598497
0.0009416141 0.0026795988 -0.0004795459 8.4455365e-05 -0.00023687269 0.0064348145 -0.0002497169 0.0020417897
-0.00014071337 0.0018101155 5.7625362e-05 0.004793338 0.0024138053 0.0004145214 0.0027131971 0.002573362
0.00033243833 0.00075587735 -0.0035943126 0.0010436034 -0.0025016326 -0.0015770267 -0.00012747014 -0.0026927064
0.0016669236 -0.0021998761 -0.000858583 0.006937156 -0.0052126874 -0.0018241496 -0.0014845585 -0.00030372315
0.0005274345 8.385426e-05 0.0030709223 -2.1008555e-05 0.0012948388 -0.0006636687 -0.00024468044 -0.003095922
0.0058132038 -0.00055991666 -0.000349929 -0.0009932319 -0.003751896 0.0018660725 -0.0013057177 0.0017846107
0.0010496138 0.0032990149 0.0037640654 0.0013633692 -0.0029070436 3.0511994e-05 0.0018133733 0.0018187546

network.1.weight f4 [256]
00000000: 0790 7e3f 4d32 893f b3b3 783f 5130 743f
00000010: 4f5a 853f dad2 893f 602d 783f 073b 893f
00000020: c756 8b3f 16b1 7d3f 31c0 823f f0c2 803f
00000030: ef02 7e3f 3e82 833f b437 813f 0f66 803f
00000040: 1998 763f c0fe 803f 70e1 8c3f 695f 733f
00000050: f963 873f 11c5 7e3f 60bb 8b3f e772 7d3f
00000060: 800e 8a3f ff68 843f 46d4 773f 3865 803f
00000070: b1cd 763f 25bd 743f b2a7 7e3f b8aa 703f
00000080: 684a 823f aa18 753f 403a 823f 6502 893f
00000090: 04c6 7a3f 0acf 783f d51b 863f da59 7f3f
000000a0: f1da 883f eec9 8a3f 0815 7c3f f7cf 803f
000000b0: f95d 843f ab38 7d3f 71c1 833f e42a 813f
000000c0: fdaa 803f dfe5 833f 2c4f 783f 32a3 813f
000000d0: 1695 773f 36df 7f3f bde9 783f 1af8 823f
000000e0: df3d 783f 955e 743f ac27 7e3f d2ba 773f
000000f0: e1f5 793f 5d6b 783f 2107 793f 81e7 7d3f
00000100: 0f89 8c3f 1f63 7f3f 909c 803f 66d0 733f
00000110: b42f 863f 8515 803f ec99 943f 96a8 793f
00000120: 161d 7c3f c2d2 803f 5ab9 6f3f adf2 823f
00000130: a86e 763f dcbc 893f e554 823f 712d 7a3f
00000140: e0cc 8c3f 5ebd 7d3f 713b 753f d4fe 7b3f
00000150: 790d 7d3f eab1 803f fdba 6d3f 26e9 7e3f
00000160: 0e16 783f 985c 763f 3f52 7b3f 08ff 783f
00000170: 37e5 7d3f dae4 7d3f 456e 8f3f 7858 763f
00000180: 38eb 763f 8556 793f 126a 763f 383a 7b3f
00000190: 1d01 7d3f 4ced 733f 3582 753f 446d 7c3f
000001a0: 6618 7a3f 7842 823f 119e 743f 1c43 833f
000001b0: 4db7 7c3f 672a 803f ed88 783f daea 7a3f
000001c0: d80e 8a3f 9333 803f 313c 843f 3493 7e3f
000001d0: b0c4 7d3f 91bf 883f 522d 833f 8aba 7d3f
000001e0: 4379 7c3f d222 7c3f 164e 793f 035a 833f
000001f0: 9e69 733f 4fd2 8b3f c038 873f ebc4 773f
00000200: 286c 783f 5b59 7b3f 6add 773f a5eb 793f
00000210: e4a9 7c3f b100 803f 95dd 853f 5598 7a3f
00000220: e018 7c3f 01c1 7d3f b0dc 763f 8424 803f
00000230: 1790 823f 2a5f 863f b312 7f3f 96aa 7a3f
00000240: e5c4 793f 3dd3 823f e68c 7a3f 033e 733f
00000250: 77c8 783f 15e7 773f 3383 853f 3174 743f
00000260: f5ea 7f3f f746 813f 29b4 6e3f 3600 743f
00000270: 38c4 703f b0eb 833f 6e6b 753f 0628 873f
00000280: 4bcd 7c3f 200a 753f 84bb 763f 2f79 823f
00000290: 448d 833f b6c7 783f c8f2 763f 9b63 793f
000002a0: c9ea 853f 569b 783f 98c6 7f3f f7f5 7b3f
000002b0: fc65 743f 5d0b 7d3f 8709 773f bc7f 753f
000002c0: 2f51 7d3f 8627 733f c6ed 883f c81a 7e3f
000002d0: 5005 7d3f 3b22 753f 6f2a 833f 8a1f 7d3f
000002e0: 648a 833f 64af 7d3f 2edf 743f 8859 803f
000002f0: cc36 7e3f abf1 723f 4d78 823f 1467 753f
00000300: da35 7a3f 6407 853f 702f 773f 2ff5 783f
00000310: 329c 793f 91ea 723f fcb5 7b3f cb93 7c3f
00000320: 87c2 853f 0845 783f 815f 833f 23e9 873f
00000330: a3cb 763f c0eb 883f 2725 833f da0e 753f
00000340: fbef 7b3f db6b 833f dc49 773f 01a0 853f
00000350: eb13 833f 9302 783f 71ed 833f ce65 803f
00000360: 441e 753f bd96 793f 00a9 733f 6891 823f
00000370: e9b7 7e3f 65ef 803f 8f68 7d3f 569a 863f
00000380: 2407 763f 5989 793f bc1b 7d3f cfbd 803f
00000390: 4274 7c3f 5e62 753f 4967 7a3f 60d0 7e3f
000003a0: 0165 733f 8e64 7f3f ffe6 793f 6fb5 7c3f
000003b0: 53d4 7c3f ea57 7c3f b5b0 7f3f 3081 713f
000003c0: 8410 823f 821a 803f 76e8 7c3f 891b 753f
000003d0: c80b 823f 3d61 783f 86b6 783f ff08 743f
000003e0: 6b2a 743f b990 873f f535 843f 03a3 7c3f
000003f0: 7c42 803f fa25 7a3f dd67 823f 8ca6 7b3f
0.9943852 1.0718476 0.971492 0.95386225 1.0418185 1.0767472 0.96944237 1.0721139
1.0885857 0.99098337 1.0214902 1.005949 0.99223226 1.0274122 1.0095124 1.0031146
0.9632583 1.0077744 1.1006298 0.9506746 1.0577384 0.9951945 1.0916557 0.9900345
1.0785675 1.0344542 0.9680828 1.003089 0.9640761 0.9560111 0.9947463 0.94010496
1.0178957 0.9574076 1.0174026 1.0703856 0.979584 0.97190917 1.0477244 0.9974648
1.0691816 1.0842874 0.9846959 1.0063466 1.0341178 0.98914593 1.0293409 1.0091214
1.0052181 1.0304526 0.96995807 1.0127928 0.9671186 0.9994997 0.97231656 1.0231965
0.9696941 0.9545682 0.99279284 0.9676944 0.97640806 0.97038823 0.972765 0.9918137
1.0979327 0.9976062 1.0047779 0.95239866 1.0483308 1.0006567 1.1609473 0.97522867
0.9848188 1.0064318 0.936422 1.0230309 0.962626 1.076076 1.0182158 0.9772559
1.1000023 0.99117076 0.95793825 0.9843571 0.9884868 1.0054295 0.92863446 0.99574506
0.9690865 0.96235037 0.9817237 0.97264147 0.9917788 0.99177325 1.1205527 0.9622874
0.96452665 0.97397643 0.962556 0.9813571 0.98829824 0.9528396 0.95901805 0.98604226
0.9769348 1.0176535 0.9555369 1.0254855 0.98717195 1.001294 0.9708393 0.98014605
1.078578 1.0015739 1.0330869 0.99443364 0.99128246 1.0683461 1.0248206 0.9911276
0.9862253 0.9849063 0.97384775 1.0261844 0.95083034 1.0923556 1.0564194 0.9678485
0.97040033 0.9818322 0.96822226 0.9762519 0.9869673 1.0000211 1.0458246 0.9788869
0.98475456 0.99122626 0.9643049 1.0011144 1.0200223 1.0497792 0.9963791 0.97916543
0.9756606 1.0220715 0.97871244 0.950165 0.97180885 0.9683698 1.0430664 0.95489794
0.9996789 1.0099782 0.9324365 0.9531282 0.94049406 1.0306301 0.9586705 1.0559089
0.9875075 0.95718575 0.96379876 1.0193232 1.0277486 0.97179735 0.96464205 0.9741761
1.0462276 0.97112024 0.99912405 0.9842219 0.95468116 0.98845464 0.9649891 0.9589803
0.98952 0.9498218 1.0697563 0.99259615 0.9883623 0.95755357 1.0247325 0.9887625
1.0276608 0.9909575 0.95653045 1.0027323 0.99302363 0.94900006 1.0192963 0.9586041
0.9773842 1.039288 0.9655676 0.9724912 0.9750396 0.9488917 0.9832456 0.98663014
1.044999 0.96980333 1.026352 1.0618023 0.96404475 1.0696945 1.0245713 0.95725787
0.98413056 1.026729 0.96597075 1.0439454 1.0240453 0.9687893 1.0306836 1.0031068
0.95749307 0.97495633 0.9517975 1.0200624 0.99499375 1.0073057 0.9898767 1.051585
0.96104646 0.974752 0.98870444 1.0057925 0.98614895 0.9585322 0.9781385 0.99536705
0.95075995 0.9976281 0.976181 0.98714346 0.9876148 0.98571646 0.9987901 0.9433775
1.016129 1.000809 0.9879221 0.9574514 1.0159845 0.97023374 0.9715351 0.95326227
0.95377225 1.0591041 1.0328966 0.98686236 1.002029 0.977142 1.0187947 0.98301005

network.1.bias f4 [256]
00000000: 3672 ecba 6160 2c3b 0639 abbb c73c e2bc
00000010: 8e7a d63c ed6a 553d 3bdf 2bbd b44f 373d
00000020: 60a0 3dba e8c8 0fbc c01f 4b3d 6577 92bb
00000030: 2547 e9bc c437 b6bc 3c0a f03c de9d 4f3c
00000040: bdec 31bd b54c 7aba c939 b43c d8c0 1abc
00000050: 7c3b 96bc dfbc 98bc f129 9d3c 35a7 9ebc
00000060: fec5 883d dbfa d23b d20e c5bc 0293 3a3c
00000070: c36e 80bd 12cc 31bd 7ab1 a1bb cd95 60bd
00000080: e436 473c 8e31 13bd f1ab a3bb b35c cd3c
00000090: e022 2dbd fae0 58bc ec61 833c 5ae6 62bb
000000a0: 0ee9 bf3b d46e 5e3d 7aa6 2b3b e080 803c
000000b0: c97e 3a3d 3b3a d2bc 3f17 483d 02aa 163c
000000c0: 8c4c 393b 02ec 6cbb 5fce cabc 4246 ddbc
000000d0: 36a1 18bd 15f2 c7bb 1190 ecbc 94c1 de3c
000000e0: f39f 68bc 60e9 d0bc 34d9 6bbc dfff 9cbc
000000f0: d81d eabc 0175 f5bc 734f 21bc 3a0f 00bd
00000100: 0253 8d3d 05ea 583c 8d09 1bbb e6c6 20bd
00000110: fc5e 543c 459a 30bc 8e84 663c 402c 46bd
00000120: 762f 3dbc 2617 0cbc 308d 62bd 321b 193d
00000130: a399 b2bc 2f74 c03d 7629 77bc 1852 5bbd
00000140: 025d 123d 3d63 b1bc 9298 30bd 6e93 91bd
00000150: cca2 c03a 3add adbc 83db 6cbd 63c0 e139
00000160: 7610 0fbd ea39 cdbc 37d5 edbc d89d 96bc
00000170: dea6 f83a 25ec 7ebc 9e43 0b3d ae68 fdbc
00000180: e80e 0dbd 3263 3abd 63d0 3ebc f45d b5bb
00000190: 871b aebc 2b5e 6abd 2a48 16bd 2fb7 37bc
000001a0: 4199 d0bb 4fab 543c d1bb f3bc a8bf 60bc
000001b0: ce9a 8dbc 5e90 a83c 752a abbc 2702 21bd
000001c0: 060e b43d b522 3ebb cb8f dfbc 7ab6 9fbc
000001d0: 2e5f b1bb 78d2 dc3c 230e 8ebc 47fc 61bc
000001e0: d08f 86bc 09b1 a73b eb0d f9bb 309b 6d3c
000001f0: 5d90 6abd ac16 0e3d 5d7f 6cbc 445b 9abc
00000200: 4752 80bd 69e4 49bc de27 cdbc 5f75 a1bc
00000210: 8652 b6bc a214 38bb 2829 203d 8842 daba
00000220: 686c 57bc d4bd febb ad37 9fbc e13e 76bc
00000230: 3356 1bbc 329a 083d 9262 2dbd e919 01bd
00000240: 872e 55bc 17ca be3c 10e4 5fbc d5b9 e7bc
00000250: cbab 8239 bd8b 24bd 7e39 1b3d 5ea5 47bd
00000260: 4b74 4fbb 8d90 4e3c 426d 22bd e54d e9bc
00000270: dbf9 23bd b8cb 0f3d b03c c7bc 8cf0 2e3b
00000280: decd 96bc 5675 2bbd 4eb0 e7bc 7f53 e03c
00000290: 4900 9aba 12b3 26bd 4f55 24bd 1b97 d5bc
000002a0: e59b b93d 92f3 c2bc 548d 8fbc 9b91 22bc
000002b0: bfd2 61bd 2535 57bd 06e0 afbc 7f6a 1abd
000002c0: 32a3 01bd 65e4 14bd 45b0 3e3d 1b3a debb
000002d0: 039f 163c 0675 63bd 3bf3 043b 551b c1bc
000002e0: a7ba 433d e45a 693c 46ef 0dbd 2739 28bb
000002f0: 8a72 19bb 3250 2fbd 1add e2bb a8b9 24bd
00000300: 2cb1 e5bc 7831 573c 8f3c 02bd e48d a5bc
00000310: 471e c1bc 292d 2ebd b9dc 9cbc c530 cabc
00000320: e6a6 383d 36f1 71bc 198a 123d 8890 883c
00000330: aa99 51bd bcdb 2d3c 144c 3d3c 92b8 c5bc
00000340: f6e5 13bc 618c f23c 678e a6bc 11f5 983b
00000350: 9f66 d43b c13b 2abd d8b3 c2ba de19 52bb
00000360: 7245 db3b 10b3 58bc 6489 26bd dd8a 61bc
00000370: 128e b9bc e5cd 07bd e4f3 6ebc d63c f53c
00000380: 5f5e 18bd 16cc dfbc b008 e4bc 0457 363c
00000390: f9bf 5ebd a659 02bd cb97 b2bc cfeb afba
000003a0: 4f73 07bd cda9 34bc 8cb2 55bc a2a6 eabc
000003b0: 23c0 88bc bae0 5ebb 9d61 573c 5e4a 74bd
000003c0: b80a 33bb 481b 0bbc b571 99bb b429 71bc
000003d0: 566c 403c 5c97 8cbd d324 a2bc 8cc5 54bd
000003e0: 9b77 29bd 7744 d23c 137a 863c 53c9 28bd
000003f0: a6bb 553c 3987 26bd cd62 1d3d dd0e e1bc
-0.0018039409 0.0026302563 -0.0052253036 -0.027616872 0.026181486 0.052103925 -0.041960936 0.044753745
-0.00072336756 -0.008775927 0.049590826 -0.0044697993 -0.028476307 -0.022243388 0.029301755 0.012671916
-0.04343866 -0.00095481734 0.02200021 -0.009445392 -0.018338911 -0.018644748 0.019185038 -0.01936684
0.06678389 0.0064385957 -0.024054918 0.011387588 -0.06271126 -0.043407507 -0.004934487 -0.05483036
0.012159083 -0.03593593 -0.0049948622 0.025068616 -0.042269588 -0.013237232 0.016037904 -0.0034622164
0.0058566397 0.054304913 0.0026191757 0.015686452 0.045531068 -0.025662532 0.048850294 0.009195806
0.0028274385 -0.0036151414 -0.024756609 -0.02701104 -0.037263118 -0.0061018565 -0.02887729 0.027191915
-0.014198291 -0.025501907 -0.014395047 -0.019164978 -0.028578684 -0.029963018 -0.009845602 -0.03126452
0.06900598 0.013239388 -0.0023656816 -0.039252184 0.012962099 -0.010778968 0.014069689 -0.048382044
-0.01154696 -0.008550441 -0.05531043 0.03737945 -0.021801775 0.0939716 -0.015085569 -0.053545088
0.03573323 -0.021653766 -0.043114252 -0.07108198 0.0014696955 -0.021223653 -0.05782653 0.00043058684
-0.034927808 -0.02505203 -0.029032333 -0.018385813 0.0018970629 -0.015559231 0.03400003 -0.030933704
-0.034438044 -0.045504756 -0.011646363 -0.0055348817 -0.02125336 -0.05721871 -0.036689915 -0.011213108
-0.0063659255 0.012980296 -0.029752644 -0.013717569 -0.01728573 0.020576652 -0.020894269 -0.039308693
0.08791737 -0.0029012386 -0.027290246 -0.019496191 -0.0054129576 0.026955828 -0.017340725 -0.013793058
-0.016425997 0.00511754 -0.007600536 0.014502332 -0.05726658 0.03468959 -0.014434663 -0.018842347
-0.06265693 -0.012322524 -0.025043424 -0.019709287 -0.022256147 -0.002808847 0.03910175 -0.0016651908
-0.013148405 -0.007774094 -0.019435728 -0.01502964 -0.009481001 0.033350177 -0.042330332 -0.03151885
-0.013011581 0.023289723 -0.013665214 -0.028286854 0.00024923528 -0.040172327 0.037896626 -0.04874169
-0.003165501 0.012607706 -0.039654978 -0.028479526 -0.040033203 0.03510639 -0.02432093 0.002669367
-0.018408712 -0.041859947 -0.02828231 0.027383564 -0.0011749353 -0.04069812 -0.04012042 -0.02607303
0.09062938 -0.023797784 -0.017523445 -0.00992241 -0.055132624 -0.052540917 -0.021469127 -0.03769922
-0.031649776 -0.036350626 0.046554822 -0.006781829 0.009193185 -0.055531524 0.0020286578 -0.023572603
0.047785427 0.014242861 -0.034652017 -0.002566883 -0.0023414218 -0.04280109 -0.00692333 -0.040216118
-0.028038584 0.013134353 -0.031796034 -0.02020926 -0.023574008 -0.042523537 -0.019148218 -0.024681458
0.04508104 -0.014766982 0.03577623 0.01667048 -0.051171936 0.010611471 0.011553783 -0.024135862
-0.009026995 0.029607954 -0.020331575 0.004667886 0.00648196 -0.041560892 -0.0014854623 -0.0032058875
0.006691628 -0.013226286 -0.04065837 -0.013766018 -0.022650752 -0.03315534 -0.014584515 0.029936235
-0.037199374 -0.027318995 -0.027836174 0.011129145 -0.0543823 -0.031823777 -0.021800896 -0.0013421717
-0.03306895 -0.011026812 -0.013043057 -0.02864391 -0.01669318 -0.003400846 0.013145831 -0.059641235
-0.0027319621 -0.008490391 -0.0046827444 -0.014719415 0.011744579 -0.06864807 -0.01979295 -0.051946208
-0.04137383 0.025667412 0.016415631 -0.041207623 0.013045227 -0.040656302 0.038424302 -0.027472908

network.1.running_mean f4 [256]
00000000: bca5 25bc ffb7 54b9 d267 793c 75bf f2bb
00000010: 9f62 8f3b 43cf 523c 6e95 aabb 6c64 ca3b
00000020: 09cd 76bb 9120 e1bb 1ca8 e2bb a8f9 b63a
00000030: 3bbc 4c3c 83a5 e83a 5efc 35bb 0883 ffbb
00000040: 8a1f b8ba 0930 34bc 4d48 f4bb 3eeb d6b9
00000050: 903a c5bb 8d58 31bc 2999 8b3a 3b94 563b
00000060: 30c6 8fbb e89e 05bb 8940 373a ac73 bebb
00000070: 2bc4 edbb 44cd a4bb 1112 bebb ff50 1dbc
00000080: 7ebf cebb ce2d b93b 5773 3d3c 999d bebb
00000090: ac8c 76bb 77d9 703b 46eb 5d3c 4c4f 803b
000000a0: 28d1 33b9 a5c3 90bb 1099 543c c69b e738
000000b0: 0671 86bb 0265 ecba 3bbb a1bb 5541 903b
000000c0: 7919 39ba fbb9 8b3b ea20 1a3b db7a fa3a
000000d0: bf19 50bc d1b7 afba 6f2c 11bc 2217 7d3b
000000e0: 955d 84b8 f71b 7ab9 2f67 0cbb 4a1a 783c
000000f0: 9210 113c e3c9 7f3b 2027 753a 5de6 e3bb
00000100: b6b1 ea3b 1e7d afba 4d13 473b 53ae 7cbb
00000110: 2086 313b 3872 2ebb bdf5 8fbc b1be 7ebb
00000120: a77f 97bb e632 223c 70b2 e7bb 8201 bc3b
00000130: 6938 f93b 5f8a 1839 a253 42bc b3a3 743b
00000140: 8808 2a3a 35b5 163c 2bee 283b a54e e439
00000150: 6b62 98bb 7f90 893b 4bcf 0b3b a2c8 2fbc
00000160: c737 383b f16b d83b 375d 0f3c 8690 3cba
00000170: dd39 debb 431b ebbb 4043 59b9 469d 64ba
00000180: ebb2 1d3c 2e28 13bc cf5d 3abc d978 f739
00000190: ac26 d3bb cc75 053c 1bf2 923b 52fc 95bb
000001a0: 037e 6bbb 3568 193b afd7 c23a 7073 853b
000001b0: 98e4 513b e6f6 e23b 6b05 063c 1765 c63b
000001c0: 1a56 253c c50d 47bc 7929 b03b fb65 08bc
000001d0: d5cc b63b 972f 43bb 0780 ef3a 7e05 003c
000001e0: 959b 603c 40f3 ecba 07c9 2d3b e121 583c
000001f0: 38cc 12bc b5ea 92ba b7c0 81bb 195e a63a
00000200: 91d9 ecbb 9670 cabb 24e8 4b3c 13a7 05bb
00000210: acea f1bb c10c a83a 7e69 063c da48 fb3b
00000220: bd5a 6d39 d8ce b1bb 9b66 14ba bb83 2d3b
00000230: e98a 7dbc dbf0 f4ba a304 243b a986 dd3a
00000240: caf8 3fbc 48f1 a7ba 4173 46bc 1733 20bb
00000250: dac6 a6bb 9bd9 8b3c c910 6bbc 338d b238
00000260: a2cd 593a 6a2f 38bb 4ada f33b 870c a63b
00000270: b306 f53b 34a1 0b3c 5441 703b c61f cf3b
00000280: 0cc2 d938 53f8 b53b 63f4 703b b4dc 99bb
00000290: d203 2f3b efe6 0a3c 874c db3b b88e 04bc
000002a0: 5ccb 1dbc 5acc 05bb 3e5e 113b f7ea 96ba
000002b0: f617 ee3b d9e0 84bb 8479 9ebb 916c 22bb
000002c0: 03f5 24bb f647 e639 7900 383b 3a36 1cbc
000002d0: e1ef 4b3b c475 653b 0799 6bbc 0098 58bb
000002e0: 818c 103b 5df6 d73b 091d 203c 1c9b 71bb
000002f0: 8f11 16bb 6fb2 113b 2e1f 54bb cd89 343b
00000300: 89dc 37bc b82a 1cbb 8814 623b 2491 60bc
00000310: 6c3b 4b3b a8b6 483c 6535 1bbc e2bb cf3b
00000320: fa0f 843b 8163 9a3b 1046 e1bb 918f ea3b
00000330: 6b1c 1b3b 2118 8e3b 0b99 cf3b fa02 0eba
00000340: d1ad b5bb f74b 2539 e119 6fbc 2b2f 7f3c
00000350: 97da cf3b 0c4a 74ba d65b 883b 75ef c73a
00000360: f617 96bb 1531 9cbb 3cb5 80bc 5aca f739
00000370: 8cc7 3b3b b191 a2bb aaa0 dd3a 78ea 853b
00000380: 7994 90bb b364 2ebb d43d eebb c7b4 7b3b
00000390: d137 4abb 30ca 8dba 6d15 213b 4486 753b
000003a0: 3f3d 80ba 0c68 aabb 9bc3 a33b 78a8 cc3b
000003b0: 892f 9fba c538 96ba 6c3e 74bb 2a0c 1fbb
000003c0: 70d7 ab3b 04e9 f0bb bf7b e7bb c09b 113b
000003d0: 7a69 09bb e8a8 1fba 4baf 3f3c a3dd b73a
000003e0: f4cc 223b 5600 cd3b 97ed cfb8 7382 bfbb
000003f0: 6042 babb 656c 9f3b 801f 373c 97a1 a0ba
-0.010110315 -0.0002028644 0.015222507 -0.0074080774 0.00437577 0.012866798 -0.0052058017 0.006176522
-0.0037658832 -0.0068703373 -0.006917013 0.0013959901 0.0124960495 0.0017749522 -0.002776883 -0.0077976026
-0.0014047485 -0.010997781 -0.007454908 -0.0004099253 -0.006018944 -0.010824335 0.0010650504 0.003274216
-0.0043876395 -0.0020388905 0.00069905125 -0.005812129 -0.007256051 -0.0050293524 -0.0058004935 -0.0096018305
-0.0063094487 0.0056512123 0.011563144 -0.005817127 -0.0037620468 0.0036750713 0.013544863 0.003915703
-0.00017148687 -0.004417854 0.012975946 0.000110439534 -0.004102829 -0.0018035474 -0.0049356497 0.0044023194
-0.00070609857 0.004264114 0.0023518153 0.00191101 -0.012701451 -0.0013406222 -0.008860691 0.0038618525
-6.3116815e-05 -0.00023852276 -0.0021423807 0.015142987 0.008854048 0.0039030246 0.00093518384 -0.0069549517
0.007162298 -0.0013388728 0.0030376494 -0.0038556054 0.0027088001 -0.0026618373 -0.017573232 -0.0038870985
-0.0046233716 0.00989983 -0.007070832 0.0057374844 0.0076056016 0.00014547397 -0.01186076 0.0037329018
0.00064862566 0.009198477 0.0025776725 0.00043546144 -0.004650404 0.0041981335 0.0021333273 -0.010728987
0.0028109418 0.0066046645 0.0087502515 -0.00071931665 -0.0067818 -0.0071748807 -0.00020719785 -0.00087209453
0.009625177 -0.008981748 -0.011374905 0.0004720155 -0.006443819 0.008145761 0.0044844276 -0.004577198
-0.0035933263 0.002340806 0.0014865304 0.004072599 0.0032027122 0.0069264052 0.008180003 0.0060545313
0.010091329 -0.012149279 0.0053760377 -0.008325095 0.005578617 -0.0029783004 0.0018272408 0.007813809
0.013708969 -0.0018077865 0.0026517527 0.013191671 -0.008959822 -0.0011208864 -0.003959741 0.0012692838
-0.0072280844 -0.006177972 0.012445483 -0.0020393773 -0.0073827114 0.0012821184 0.008203862 0.0076685967
0.00022635884 -0.005426269 -0.00056610414 0.0026476223 -0.015475013 -0.0018687503 0.0025027178 0.0016901094
-0.011717031 -0.0012812996 -0.01211244 -0.0024444514 -0.005089623 0.017071536 -0.014347264 8.514002e-05
0.0008308535 -0.0028104433 0.0074417936 0.0050674113 0.0074776052 0.008522321 0.0036660032 0.0063209264
0.000103835104 0.005553284 0.003676676 -0.0046954993 0.0026705158 0.00847791 0.0066924724 -0.008090667
-0.009631004 -0.0020415992 0.0022181417 -0.0011514117 0.00726604 -0.0040551242 -0.004836263 -0.002478395
-0.0025170452 0.00043922634 0.0028076454 -0.009534413 0.003111832 0.003501282 -0.014379746 -0.0033049583
0.0022056403 0.006590648 0.0097725475 -0.0036866134 -0.002289865 0.00222316 -0.0032367217 0.0027547956
-0.011222013 -0.0023829173 0.00344971 -0.013706479 0.003101076 0.01225058 -0.0094731795 0.006339536
0.004030225 0.004711569 -0.006874807 0.0071582277 0.0023668061 0.0043363725 0.006335383 -0.00054173137
-0.005544402 0.00015763925 -0.014593572 0.015575211 0.0063431966 -0.0009318895 0.0041613383 0.0015253859
-0.004580493 -0.004766593 -0.01571142 0.00047262275 0.0028652875 -0.0049612154 0.0016908844 0.0040867887
-0.0044122306 -0.0026610314 -0.007270554 0.0038407312 -0.0030856023 -0.0010817703 0.002457942 0.0037464062
-0.0009783878 -0.0052003916 0.004997683 0.006245669 -0.0012144904 -0.001146101 -0.0037268652 -0.0024268725
0.005244188 -0.0073519964 -0.007064312 0.0022218078 -0.002096741 -0.00060905376 0.011699508 0.0014027845
0.00248414 0.0062561436 -9.914784e-05 -0.005844408 -0.005684182 0.0048652166 0.011176944 -0.0012255189

network.1.running_var f4 [256]
00000000: dbda 2a3e 7df3 283e af64 233e f0d4 143e
00000010: 247c 363e 7b04 393e 9b0e 0e3e eac0 2f3e
00000020: e4b7 273e 80dd 333e 39c4 ca3d 94d4 e13d
00000030: eaee 093e bc03 133e fd5d 413e f57c 0e3e
00000040: 1e8f 0c3e 1039 023e 3127 0c3e 1c18 183e
00000050: 783e 303e e9c1 393e 2b11 e53d 7d3d 223e
00000060: 731e ee3d 0328 e23d b155 073e 6350 303e
00000070: 5c59 353e b59e 1f3e 6293 3e3e 01ec 2b3e
00000080: 67c4 533e 4b0a 033e aaf0 0e3e ec5f e23d
00000090: 7211 063e 6b3b 263e 00db 183e 9397 1b3e
000000a0: 27d6 cf3d 337e ad3d 1a46 1a3e 95f4 243e
000000b0: 6a92 1f3e 90f6 ea3d 567e 743e 5f04 2f3e
000000c0: 53ed 1b3e c359 153e 85a0 483e c44b 1d3e
000000d0: b5c5 173e ab5f fa3d cf1d 483e 4f3e e73d
000000e0: 9aaa 413e a922 423e b4a4 273e cfe3 123e
000000f0: 03b9 203e 8bfc 173e baa0 273e aec7 1d3e
00000100: d0d2 1d3e f6f8 c53d 0579 673e f889 333e
00000110: a911 033e 48e9 103e 3577 9d3d 1200 063e
00000120: 70fe 0f3e 9b1a eb3d c4c8 ce3d 6c39 5a3e
00000130: 8e62 1f3e a88d fc3d 4575 013e 24cb d73d
00000140: 2df3 4b3e 3e10 1f3e d922 003e 9215 373e
00000150: cd62 ec3d 70c5 113e bf17 f73d 7562 103e
00000160: 174c dc3d fbd1 133e aff6 2a3e f1c8 0e3e
00000170: e229 5b3e 5d86 423e 7978 0d3e 9ab3 2f3e
00000180: 6d03 3f3e 382e 3a3e 0950 073e 6ec8 3f3e
00000190: 505f ef3d ee25 093e d638 103e a1fb 9e3d
000001a0: 5bd6 443e c9dd 063e f9af fc3d dbc1 1b3e
000001b0: 8377 323e 7da6 0a3e b4c5 2c3e fa8f e93d
000001c0: 0c3a 3c3e ca4c 4a3e 434e 203e 77bc 243e
000001d0: 986d 093e 06c2 103e 6f68 1b3e 1eef ef3d
000001e0: 23d3 c63d 2a8f 083e 29ec ee3d 345d 003e
000001f0: d195 583e b406 cc3d adb5 0b3e 138e 153e
00000200: 2fba 1b3e 05ff 0c3e 3d6e 643e dc35 1e3e
00000210: ec8b 3e3e 7344 2b3e a219 063e 4784 103e
00000220: 3548 2c3e 5919 d83d aa8a 043e fc37 193e
00000230: 38f5 313e a8fe 363e 0553 033e 3007 f33d
00000240: 388a fa3d 06b4 2b3e 3a01 193e 5b6c 1f3e
00000250: addd e53d a332 473e 30a5 3b3e e668 fb3d
00000260: 756c 4c3e bf20 6c3e 107f 293e ac06 1c3e
00000270: 1882 1a3e edb5 e83d 7394 fd3d d56d 0c3e
00000280: e019 ff3d 14b1 e93d d0ac 2a3e 9b22 f23d
00000290: e1e7 093e e3bf 1a3e 16af 013e e871 253e
000002a0: 80ea e23d fcd9 1f3e 8839 5b3e 2694 293e
000002b0: 9c6b 1e3e 83d8 133e 1f75 123e aa89 eb3d
000002c0: eec6 103e cb1e c83d 34b1 ec3d b83b 283e
000002d0: 6414 a03d d5be 273e 714f 2b3e 9760 2e3e
000002e0: bb11 0b3e b627 143e c5bf 163e 6743 3d3e
000002f0: 480a e53d 7b2e 353e e9bb db3d c9d8 793e
00000300: 3345 1a3e c1ef 163e de5f 033e 51e7 e53d
00000310: e720 2b3e 74d1 503e 421e a33d c536 403e
00000320: 8e54 3e3e 188c 373e fb66 b33d a0d9 153e
00000330: d448 e13d e2e3 e23d e506 063e 2e73 003e
00000340: 5928 063e 0090 043e 9c22 403e a7e5 653e
00000350: bf99 3e3e 70c6 343e 630c e33d 4b02 133e
00000360: 88df fd3d f309 213e 6964 223e 2924 f43d
00000370: 1fdf 603e 123a f93d 11d9 143e 7d59 e23d
00000380: 17d8 173e 763c 003e 2ccc 553e 6638 303e
00000390: b5ad 483e 69e3 203e 7d42 e73d 1b29 103e
000003a0: c23c 353e 2329 183e caf6 013e 908d 263e
000003b0: 4d75 093e ec5e 213e 153f 183e 4a76 073e
000003c0: 4e65 103e 29ec 093e e15c 0f3e a8e4 4b3e
000003d0: 3c5c fa3d 80f1 fe3d b4fd 0a3e 8640 1b3e
000003e0: 28dd 153e 2cfe fd3d 036e aa3d 6909 313e
000003f0: 06a5 e53d d586 013e b97a 633e 1336 223e
0.16685049 0.16499133 0.15956376 0.14534354 0.17820793 0.18068115 0.13872759 0.17163435
0.16378742 0.17564964 0.09900708 0.11026874 0.13470045 0.14356893 0.1888351 0.13914855
0.1372647 0.1271708 0.13686825 0.14852947 0.1721133 0.18140377 0.11184915 0.15843768
0.116269015 0.11042788 0.13216282 0.17218165 0.17709869 0.15587886 0.1861091 0.16789247
0.2068039 0.12796895 0.13958994 0.11053452 0.13092592 0.16233604 0.14927292 0.1519454
0.10148268 0.08471336 0.15065804 0.16108926 0.15583196 0.11472809 0.23876318 0.17091511
0.15227251 0.14585023 0.19592483 0.15360934 0.14821513 0.122252785 0.19542621 0.11291181
0.18912736 0.18958534 0.16371423 0.14344715 0.15695576 0.14842431 0.16369906 0.15408203
0.1541245 0.09666626 0.22604759 0.175331 0.12799706 0.1415149 0.076887526 0.13085964
0.14061904 0.11479684 0.10096887 0.21310967 0.1556494 0.12331706 0.12642391 0.10536793
0.19916983 0.1553354 0.12513293 0.17879322 0.11542282 0.14235473 0.12065076 0.14100058
0.107567005 0.1443557 0.16695665 0.1394384 0.21402696 0.18996568 0.13815488 0.17158356
0.1865365 0.18181694 0.13214125 0.18728802 0.11688101 0.13393375 0.14084181 0.07762838
0.19222395 0.13170542 0.123382516 0.15210669 0.17428403 0.13540073 0.16872293 0.114044145
0.18381518 0.19755855 0.15654854 0.16087519 0.13420713 0.14136514 0.15176557 0.1171553
0.0970824 0.13335863 0.11666138 0.12535554 0.211509 0.09962216 0.13643523 0.14604978
0.15207742 0.13769157 0.22307678 0.15450233 0.18608063 0.1672533 0.13095716 0.1411296
0.1682442 0.1055171 0.12943521 0.14962763 0.173787 0.17870581 0.12824638 0.11866605
0.122333944 0.16767892 0.14941874 0.15568678 0.11223922 0.1945291 0.18324733 0.12275867
0.19963248 0.23059367 0.16552377 0.1523692 0.1508869 0.113628246 0.1238183 0.13713773
0.12456107 0.11410728 0.16667485 0.11823007 0.13467361 0.15112261 0.12664446 0.16156733
0.110798836 0.15610498 0.21408665 0.1656042 0.15470737 0.14438061 0.1430249 0.11500867
0.14138386 0.09771498 0.11557236 0.16429031 0.07816389 0.1638139 0.16729523 0.17029034
0.13580982 0.14468274 0.14721592 0.18482743 0.111836016 0.17693512 0.107292004 0.24399103
0.1506546 0.14739896 0.12829539 0.11225761 0.1671177 0.203924 0.079647556 0.18770893
0.18586943 0.17924535 0.08759876 0.14633799 0.11000219 0.110786214 0.13088568 0.12543938
0.13101329 0.12945557 0.18763202 0.22450887 0.18613337 0.17653823 0.11086347 0.14356343
0.12396151 0.15726452 0.15858616 0.119209595 0.21960114 0.12169279 0.1453593 0.11052225
0.14828525 0.12523064 0.20878667 0.17209014 0.19597514 0.1571175 0.112919785 0.1407818
0.17698959 0.14859442 0.12691799 0.1626494 0.13423653 0.15758866 0.14867814 0.13228717
0.14101145 0.13468994 0.14000274 0.19911444 0.122246236 0.12448406 0.13573343 0.15161332
0.14635146 0.12401995 0.08321764 0.17288746 0.11213116 0.1264909 0.22214784 0.1584094

network.4.weight f4 [128, 256]
00000000: 43ed 9abc fbdd dcbd 7be7 b53d 4c87 a9bc
00000010: 1cbd 5abd 9665 013d e2bb dd3d bd78 11be
00000020: 07b7 bbbd 7631 37bd ed8c 82bd fb53 f93a
00000030: a1fd 18be 6049 13bc c4a2 98bd c574 f8bc
00000040: 1e91 04bd c4d6 663d 21c9 af3c 5610 7a3d
00000050: b1e7 93bd 330c 5f3d 10df 023c 3b9d 003e
00000060: d086 7cbd 0fd4 0bbc 4bf6 dabc 53a6 ae3d
00000070: 4b83 fcbd eb70 b2bd e89c 6dbd dfa3 37bd
00000080: 0ce3 18bd 96ce f5bd 5e35 b33d 1f37 a53d
00000090: 2770 e53d bb30 d53d 0422 df3d abe5 0dbe
000000a0: 0bb8 723d 68dc 8b3d 5b72 61bd ebe2 093d
000000b0: dc02 45bd 76e8 9b3d 9664 7e3d a9bb 683d
000000c0: d725 64bd 3074 cbbd 60a2 c3bb c985 ebbd
000000d0: b2dd 353d 8339 0b3e b6d9 563d 6a5b e4bb
000000e0: 06b6 1fbd 2cca 1a3c dd6e 5ebc 6274 0abc
000000f0: cacf a03d 0ddb cebd 27a9 0ebd f396 c6bc
00000100: dd26 f6bd c0c1 de3d c81d b0bd 5faf 003d
00000110: 1e85 de3b fe67 eabd f2a2 153d eb50 8f3c
00000120: a9c9 0e3e c7ea 0ebc 1004 5a3d ce26 f93c
00000130: 3e34 d6bd 5fc1 b7bd 9d4c fdbc 700e bfbd
00000140: cd30 073c 894e 363d affb 4abd 5a59 8b3b
00000150: e58c 8f3d 3e4a e339 bfac 9abd 74f0 ae3c
00000160: 1420 563d 04db a4bd 6050 c8bd 030b 083a
00000170: b542 c1bd 51a0 d8bd fb94 51bd d05c 0c3d
00000180: bdf9 3cbc ef6e 863d 5112 043c 367a bc3d
00000190: 8a5d 70bd 9e20 0f3d ae4b eebd eab3 62bc
000001a0: 380f 683d 5b30 c1bd bb85 06be f47e cb3b
000001b0: 80ed 603d 5bac e93c f793 c3bd d297 373d
000001c0: f8d8 ba3c ecb2 75bd cd55 afbd c2dc bf3d
000001d0: e45d b13d 16ae 22bc 721d 033e 7efc a63d
000001e0: a4e2 debd 5093 d43d f75a e53d 9952 ac3d
000001f0: eb8a 703d 6997 943d fff0 ad3d 1566 e33d
00000200: cce0 383d fd2d b13d 83d1 d9bb 79b2 49bd
00000210: 4f47 243d e6b9 013e c62d 4dbd a7f4 8abd
00000220: 3e3a 543c dc04 86bd 8783 1e3d be62 233d
00000230: bea1 23bd 8ef7 083d 5c83 013d b369 a33c
00000240: 9bf1 ec3d 6ebd 423d 2465 e2bd 1ff8 103d
00000250: 9322 463b 535b 013e 5c61 b2bd 901c 89bd
00000260: 4552 bcbc 72b9 da3c 8590 863c 7d32 0dbd
00000270: baf8 4e3d 21d7 e9bc 7b0d f93c bfe5 703d
00000280: 8b4f 04bc 191a 523d 9a5b e63d 9dd0 d43d
00000290: 95c7 3e3d b43a 903d 9523 acbd 9b1f 983d
000002a0: b209 f13c 6810 aebd b6e1 263c 32f1 01bd
000002b0: a9d8 6abc eafa b03d 055f 653d e09d e9bd
000002c0: 3787 e43a 5812 34bd 5cdc 55bd ae5e 1fbd
000002d0: b595 d33d 90b8 dabd 6890 3fbd f795 bf3d
000002e0: e9cf 19bc e576 843c 638a 8e3c 5681 3ebd
000002f0: c13f c23d a66e cbbb b273 ebbd 2dd2 b43d
00000300: 525c 9bbd 2ece 17be c7a5 67bd 4c26 bebd
00000310: ef9b be3d ac71 083d a5b7 d03d 5fb5 a9bd
00000320: 30e8 61bd c8cd f83d 617e 063e f923 a33d
00000330: 3b2b 323d db95 acbd 941c f6bd 8325 cc3d
00000340: 22ec 423d 608d 90bc b251 35bd 1712 3b3d
00000350: 98f7 a03d bec5 67bd 9623 0ebe eea1 ba3d
00000360: 008d b43d 3ec9 89bd 6f38 8b3d 3bd2 dc3d
00000370: e80a dcbd d940 01be 5de6 a23d 004a c0bd
00000380: 44e7 683d 9419 083e bf1f 45bd b3ed dcbd
00000390: 4532 e1bd f0e4 ae3d fc20 f33b e19c 97bd
000003a0: 3012 5bbb 5135 083e d493 833d bdf9 833d
000003b0: ba91 773d 10df de3d 7567 0cbd 0970 50bd
000003c0: bb5b 83bd d28e c13a 16f8 053d 2e6e ddbd
000003d0: 0b75 8a3d 5547 af3c c5f5 dd3d 52f7 34bd
000003e0: 8da6 f03d 5c10 403d 2c31 febc 4c3b c8bc
000003f0: 9304 833d dd90 9a3c 770f 6fbd d2db 93bd
-0.018911963 -0.10784527 0.08882042 -0.020694397 -0.053403005 0.03159102 0.108268514 -0.14206214
-0.09165769 -0.044724904 -0.06374536 0.001902222 -0.14940502 -0.008989662 -0.0745292 -0.030329118
-0.032364957 0.05635716 0.02145821 0.061050735 -0.07221926 0.054454993 0.007987753 0.12559979
-0.061652005 -0.008534445 -0.02672877 0.085278176 -0.1232973 -0.08712944 -0.058010966 -0.044834014
-0.037325904 -0.12002294 0.08750413 0.08067154 0.11203032 0.10409685 0.1089516 -0.13857143
0.05925755 0.068291485 -0.0550407 0.03366367 -0.04809843 0.07612698 0.062107645 0.05681959
-0.05570015 -0.099342704 -0.0059702843 -0.11500127 0.04440088 0.13596158 0.05245372 -0.006968905
-0.03899195 0.009447616 -0.013576237 -0.008450599 0.078521326 -0.10100374 -0.034829285 -0.0242419
-0.12019131 0.10876799 -0.0859943 0.031417247 0.006790771 -0.11445616 0.03653235 0.01749464
0.13944115 -0.0087229675 0.05322653 0.030414011 -0.10459183 -0.089724295 -0.030920321 -0.093289256
0.008251381 0.04450849 -0.04955643 0.004252595 0.070092954 0.0004335213 -0.0755248 0.021354891
0.052276686 -0.080495864 -0.09780955 0.0005189629 -0.094365515 -0.10577453 -0.05116747 0.0342682
-0.011534152 0.06564128 0.008061008 0.092029974 -0.058682956 0.034943216 -0.116355285 -0.01383684
0.05665514 -0.09433051 -0.13136952 0.0062102024 0.054913998 0.028524568 -0.095497064 0.04482252
0.022808537 -0.059985086 -0.08561287 0.09368278 0.08660486 -0.009929201 0.12804201 0.08153628
-0.10883072 0.1037966 0.11198991 0.08414192 0.058726232 0.07255442 0.08493232 0.11103455
0.045136258 0.0865135 -0.00664729 -0.04924247 0.040107068 0.12668571 -0.05009248 -0.06784945
0.012953339 -0.065438956 0.038699653 0.03988909 -0.03994917 0.03343921 0.031619415 0.019947862
0.1156952 0.047543935 -0.11054447 0.035392877 0.003023301 0.12632494 -0.08709976 -0.06694901
-0.022988448 0.026699755 0.016426334 -0.034471978 0.050530173 -0.028544964 0.030401936 0.058812853
-0.008075605 0.05129442 0.1124794 0.10391352 0.046577055 0.07042447 -0.08405224 0.07427903
0.029423568 -0.08499223 0.01018565 -0.031724162 -0.014333882 0.08641608 0.05599882 -0.114070654
0.0017435317 -0.043962806 -0.052212104 -0.038908653 0.10331289 -0.10679734 -0.046768576 0.093547754
-0.009387949 0.016169975 0.017399972 -0.046510063 0.09484816 -0.0062082587 -0.114966765 0.0882915
-0.07585968 -0.14824745 -0.056554582 -0.09284648 0.09307086 0.03331153 0.101912774 -0.08286547
-0.055153072 0.12148625 0.13134147 0.079658456 0.04349826 -0.0842702 -0.120171696 0.09968092
0.047588475 -0.017645538 -0.044267364 0.04567155 0.07859725 -0.056585066 -0.13880762 0.09112917
0.08815956 -0.06727837 0.06797873 0.10782286 -0.10744268 -0.12622394 0.079540946 -0.093891144
0.056861177 0.13291007 -0.04812598 -0.10787525 -0.10995916 0.0853976 0.0074197035 -0.07402969
-0.0033427589 0.13301589 0.0642468 0.06444118 0.06044171 0.108823895 -0.03427835 -0.050888095
-0.064139806 0.0014767295 0.032707296 -0.10812031 0.067606054 0.021396318 0.108378924 -0.044181176
0.11750517 0.0468906 -0.031029306 -0.024442337 0.06397357 0.018867904 -0.058364358 -0.07219662

network.4.bias f4 [128]
00000000: ab78 abb7 8e8c c3ba 8d06 8b3a 933b e4ba
00000010: f349 6ebb b09d 58ba d3c7 84b9 b462 a7ba
00000020: a113 1a3b f406 a9ba edc0 dbba 26dd 3437
00000030: 707a e3ba 6035 bab9 b318 01bb e0d5 8439
00000040: d793 7c38 1708 563a e92b ae3a fdec ab3a
00000050: e07f 0bba bc80 4d3b 64e4 ce39 7596 6d3a
00000060: 23ab b13a 8bdd 5eba 548e 143b c10c c1b8
00000070: 46e6 143b 6b37 89b9 4dc6 8fba 8be2 eaba
00000080: 8acc 04ba 21d0 8e3a 915b faba 7a8f c9ba
00000090: fdaa 87ba 3585 bf3a de59 79ba e0c1 88ba
000000a0: deff 89ba f86d 513a 27a0 753a 8dcd 9b3a
000000b0: 36c6 5a3a 6a64 abba 082a 48bb 046d 35b8
000000c0: d8cb 19bb 5098 093a 3cba 82ba 2b3d 94ba
000000d0: 3560 08b9 0d22 b63a c7a2 eeba a478 12bb
000000e0: c584 943a 4abc 603b 6ee3 faba c56d 8f3a
000000f0: e117 4f3a 29ee fd39 38a4 183b 621d f2b9
00000100: 0075 5fb9 58a3 403b 1f1b 36ba 90c3 833a
00000110: 9f11 f73a 253f 5cba cc04 42bb 7a74 b53a
00000120: a174 fd3a 0956 093b a317 6aba 2fdd 05b9
00000130: 8797 d1ba 4e57 e83a c66d 1eba b0b0 4ab9
00000140: bef9 123b 5dc7 14bb f917 1d3a 23e1 0239
00000150: 7193 813b 5b49 b939 8026 e0ba 360f b1ba
00000160: d615 7e3a 9bea e8ba 930f 18bb e378 c439
00000170: 2d22 9b3a 7b9b 083b 78cf 66ba c096 953a
00000180: 3dc5 58ba 40b9 edba 4c2e 0e3a 793c d939
00000190: f988 893a 0bd7 14bb 29f5 a03a f62d 643a
000001a0: e1c8 6b3a 9e8f e6ba ce79 1b3b ea99 7b3a
000001b0: 6c0d b3b9 7ce3 99b9 60fe 94ba 8d8e d9ba
000001c0: 84e3 0eb9 ea63 f9ba 1657 c6b9 e8d6 f53a
000001d0: 1782 2bbb 0b32 ffba a950 8bb8 7df8 46bb
000001e0: b568 eaba 1fe3 8cba ef25 3bb9 bf59 eaba
000001f0: 3cd6 10ba 2345 18bb d291 9cba 56c9 eeba
-2.0440979e-05 -0.0014919208 0.0010606811 -0.0017412774 -0.0036359995 -0.00082632434 -0.00025325883 -0.0012770505
0.0023510235 -0.0012895749 -0.001676587 1.0780326e-05 -0.0017355215 -0.00035516452 -0.001969856 0.0002533635
6.021917e-05 0.00081646576 0.0013288233 0.0013116893 -0.0005321484 0.003135725 0.00039461546 0.00090632524
0.0013555031 -0.00085016404 0.0022667842 -9.205333e-05 0.0022720261 -0.00026171966 -0.0010969132 -0.0017920298
-0.0005065879 0.0010895767 -0.0019100775 -0.0015377842 -0.0010350641 0.0014611842 -0.00095119874 -0.0010433756
-0.0010528525 0.0007989104 0.0009369873 0.001188682 0.0008345576 -0.001307619 -0.003054263 -4.325529e-05
-0.0023467448 0.00052488316 -0.0009973715 -0.0011309733 -0.0001300581 0.0013895646 -0.001820647 -0.002234974
0.0011331072 0.0034291917 -0.0019141266 0.0010942748 0.00078999816 0.00048433364 0.0023291241 -0.0004617973
-0.00021310523 0.0029394235 -0.00069467904 0.0010052789 0.0018849856 -0.0008401743 -0.002960491 0.0013843917
0.0019337126 0.0020955822 -0.0008929914 -0.00012766266 -0.0015990593 0.0017726214 -0.0006043579 -0.00019330042
0.002242669 -0.0022701838 0.0005992647 0.00012481636 0.003954344 0.00035340604 -0.0017101318 -0.0013508562
0.0009692585 -0.0017770113 -0.0023202642 0.000374741 0.0011835747 0.0020844627 -0.0008804719 0.0011412725
-0.0008269137 -0.0018136874 0.0005423769 0.0004143452 0.0010493092 -0.0022711183 0.0012280095 0.00087043585
0.0008994472 -0.0017590409 0.0023723724 0.0009597825 -0.0003415154 -0.00029351923 -0.0011367314 -0.001659827
-0.00013626931 -0.0019026969 -0.00037830387 0.0018756064 -0.002617007 -0.001946987 -6.6430606e-05 -0.0030360513
-0.0017883988 -0.001074884 -0.00017847841 -0.001787953 -0.00055250875 -0.0023234568 -0.0011945313 -0.0018217962
